weights/distance.pth (torch, 9877 bytes, 10 tensors)

net.0.weight f4 [20, 2]
-0.33981365 0.17154162 -0.14681253 0.30290917 -0.29757234 1.0634778 0.09288916 0.33156303
0.03354115 0.157189 0.26033157 0.020652546 0.8036878 0.031108962 -0.059277717 0.2588933
-0.00414456 -0.017273776 0.4927341 -0.16833916 0.11812495 -0.24285424 0.38861582 -0.25336087
-0.2073966 -0.41163933 0.055948157 -0.25862828 0.57016736 0.79512507 0.084408194 0.18603829
-0.36330488 -0.3325412 0.41415194 0.09903151 0.1580453 0.61582214 -0.108282745 -0.27925876
00000000: 0efc adbe 9ba8 2f3e 0656 16be e916 9b3e
00000010: 675b 98be 0a20 883f ac3c be3d a1c2 a93e
00000020: 7262 093d 27f6 203e 2e4a 853e 872f a93c
00000030: 7cbe 4d3f 39d8 fe3c 31cd 72bd aa8d 843e
00000040: 17cf 87bb bc81 8dbc a547 fc3e 1a61 2cbe
00000050: 7eeb f13d c8ae 78be a7f8 c63e 84b8 81be
00000060: c65f 54be 64c2 d2be e529 653d ed6a 84be
00000070: 7df6 113f 518d 4b3f 34de ac3d d280 3e3e
00000080: 1903 babe d742 aabe b90b d43e 08d1 ca3d
00000090: a1d6 213e 85a6 1d3f 58c3 ddbd 01fb 8ebe

net.0.bias f4 [20]
-0.012327313 0.030298071 0.03309409 0.018717943 -0.004644082 -0.039182287 0.005262832 0.030594325
-0.016267518 -0.024181262 -0.033753946 0.016000094 0.008117902 0.010547061 -0.039207976 0.022326209
0.03800833 0.034510545 0.0037540498 -0.028557029
00000000: 80f8 49bc a933 f83c ab8d 073d 5f56 993c
00000010: 622d 98bb 9b7d 20bd d673 ac3b f3a0 fa3c
00000020: 7543 85bc c817 c6bc 9441 0abd a112 833c
00000030: f300 053c 95cd 2c3c 8b98 20bd 74e5 b63c
00000040: 9fae 1b3d ee5a 0d3d 8106 763b 6ef0 e9bc

net.2.weight f4 [20, 20]
-0.35998663 -0.23891011 -0.13560183 0.17669138 0.34708127 -0.36940148 0.4068969 -0.15205838
0.1985904 0.05660947 -0.38320938 -0.1405268 -0.06439792 0.16742794 0.16122796 0.2969769
-0.15416974 -0.020649616 0.0550647 0.019278573 0.30185497 0.16711362 -0.21765296 0.31156403
-0.29532844 0.1078389 -0.17029074 -0.032151014 0.1416631 0.22990243 -0.037010815 0.120782785
-0.16930127 0.26065 -0.0329166 0.6142544 -0.15131995 0.05796163 0.50544363 -0.15201496
0.18927191 -0.16447337 -0.0011057121 -0.30079103 -0.17573641 -0.42705578 0.22928274 0.023456099
0.01613497 -0.19177659 0.04958484 -0.011199488 0.07724996 0.030498669 -0.3554022 0.17340441
0.42986885 0.13760687 0.0877804 -0.27782506 0.22188826 0.18997051 -0.010403386 -0.2725309
-0.417827 -0.0069523253 0.088108934 0.34336 0.1767731 0.08322775 0.060126115 0.06129049
0.12534472 -0.015353231 0.03355896 -0.24313742 -0.20665434 -0.0027408395 -0.27845708 0.43915334
0.052655995 -0.30499578 -0.35346898 -0.17829272 -0.28203544 -0.13536356 -0.23392557 -0.32596156
-0.07148231 -0.16093428 -0.040497217 -0.07427944 -0.15635502 0.23476037 0.090388946 -0.23444957
-0.09159423 -0.25774676 -0.06373673 0.0435447 -0.24698813 -0.32218257 -0.33798918 -0.21528888
0.0057730875 0.08121721 0.0034728427 -0.15207975 -0.18458977 -0.23089162 0.043381225 0.11187783
-0.24453633 -0.086905874 -0.2569772 -0.10915944 0.08910469 0.24733432 -0.045710694 0.14109474
0.25034913 0.42990196 0.07128836 -0.06138836 -0.089898944 0.004551952 0.07330199 0.015492533
0.14265834 -0.4567505 -0.44511726 -0.20652656 -0.1996991 0.10222965 -0.119244106 0.11764335
0.39188367 -0.22637862 0.4426613 -0.23821764 -0.32707372 0.26758644 0.0180085 -0.020726265
0.17410766 -0.031833947 -0.1026015 0.1797243 -0.19550084 0.11447136 -0.3825392 -0.17722331
0.3926882 0.22091702 0.21918482 0.11022251 0.28293622 -0.003188165 -0.6243263 0.23268883
0.37090516 0.26868832 0.1679289 0.04333116 0.15090086 -0.0033184441 -0.11165995 -0.115611926
0.13563013 -0.16256589 -0.20720224 -0.25861096 -0.21575132 0.047370307 -0.045109063 -0.18238364
0.47520494 -0.05908011 0.01456187 -0.2509738 0.20420368 -0.023472898 0.25084344 0.19251885
-0.22309405 0.0982668 0.24475978 -0.33800545 -0.23480707 0.029012242 0.55001855 -0.33610365
-0.25781387 -0.06462662 0.37304708 -0.30017126 -0.271996 -0.11111318 -0.43064392 0.12668161
-0.019253217 0.11755306 0.19290057 0.1821152 -0.1961421 -0.043969404 0.38969085 -0.20415084
0.21919234 -0.09270057 0.12061317 -0.048494406 -0.3653201 0.466112 -0.23140839 0.4967781
-0.024009518 -0.08362252 -0.161629 -0.20151065 -0.17312315 -0.08977206 0.20903337 0.38649127
-0.07596089 -0.14283569 -0.04629976 -0.0145602655 -0.2530683 0.04480543 -0.18646406 -0.33850658
-0.0013620715 -0.3834495 0.11251565 0.35489967 0.059430834 0.02138386 0.11626667 -0.061543986
-0.075759634 -0.38787955 -0.65990144 -0.2940794 -0.024892533 0.1870826 -0.12405003 -0.63164777
0.31247735 0.24870622 0.2678269 0.011764167 0.2833553 0.23221949 -0.5035612 -0.31363988
00000000: 2b50 b8be daa4 74be 35db 0abe 96ee 343e
00000010: a3b4 b13e 3122 bdbe ca54 d03e 31b5 1bbe
00000020: 485b 4b3e 55df 673d 0534 c4be 42e6 0fbe
00000030: 0fe3 83bd 3b72 2b3e f118 253e 5b0d 983e
00000040: acde 1dbe 6229 a9bc 868b 613d 19ee 9d3c
00000050: bc8c 9a3e d51f 2b3e 6be0 5ebe 5285 9f3e
00000060: 4a35 97be a4da dc3d b260 2ebe c8b0 03bd
00000070: 2210 113e 8b6b 6b3e a798 17bd f75c f73d
00000080: 505d 2dbe eb73 853e 8fd3 06bd c73f 1d3f
00000090: 9ef3 1abe 2d69 6d3d c164 013f cfa9 1bbe
000000a0: 7fd0 413e b56b 28be 8bed 90ba 4801 9abe
000000b0: 3ff4 33be 0ea7 dabe 18c9 6a3e 0127 c03c
000000c0: 7c2d 843c 1561 44be 7919 4b3d 0f7e 37bc
000000d0: 3a35 9e3d 58d8 f93c 47f7 b5be ed90 313e
000000e0: c517 dc3e d1e8 0c3e 36c6 b33d 163f 8ebe
000000f0: ad36 633e a187 423e f772 2abc 2c89 8bbe
00000100: 6ced d5be 55d0 e3bb 7572 b43d e2cc af3e
00000110: 0204 353e 5073 aa3d cd46 763d bd0b 7b3d
00000120: 5e5a 003e 1e8c 7bbc 1f75 093d 04f9 78be
00000130: 329d 53be a89f 33bb ed91 8ebe b5d8 e03e
00000140: d0ad 573d 6828 9cbe e3f9 b4be 5e92 36be
00000150: f366 90be bf9c 0abe 2f8a 6fbe 6fe4 a6be
00000160: 5165 92bd f5cb 24be 69e0 25bd d21f 98bd
00000170: 881b 20be 0665 703e d71d b93d 8c13 70be
00000180: c195 bbbd 62f7 83be 6788 82bd ed5b 323d
00000190: 75ea 7cbe 1df5 a4be eb0c adbe b074 5cbe
000001a0: 2b2c bd3b 3555 a63d a298 633b cbba 1bbe
000001b0: 1a05 3dbe da6e 6cbe 83b0 313d 3420 e53d
000001c0: bb67 7abe b5fb b1bd 8492 83be fc8e dfbd
000001d0: 857c b63d 3545 7d3e 233b 3bbd 247b 103e
000001e0: c32d 803e 1c1c dc3e a2ff 913d 5c72 7bbd
000001f0: f01c b8bd 8a28 953b 5b1f 963d 65d4 7d3c
00000200: 0715 123e 34db e9be 69e6 e3be b37b 53be
00000210: ec7d 4cbe c75d d13d 4136 f4bd ffee f03d
00000220: faa4 c83e cccf 67be 80a4 e23e 53ef 73be
00000230: 3576 a7be 1701 893e 9086 933c 21ca a9bc
00000240: 4749 323e 5064 02bd bc20 d2bd a609 383e
00000250: 5f31 48be f66f ea3d 2edc c3be 077a 35be
00000260: 6e0e c93e 1238 623e fc71 603e 57bc e13d
00000270: 04dd 903e 88f0 50bb d9d3 1fbf fb45 6e3e
00000280: 48e7 bd3e 8491 893e 8ef5 2b3e 047c 313d
00000290: c185 1a3e 417a 59bb f9ad e4bd f2c5 ecbd
000002a0: a0e2 0a3e ac77 26be d32c 54be a868 84be
000002b0: eaed 5cbe 5e07 423d 48c4 38bd c7c2 3abe
000002c0: 104e f33e fcfd 71bd e994 6e3c a37f 80be
000002d0: c51a 513e 3c4a c0bc 8d6e 803e a923 453e
000002e0: c472 64be 1b40 c93d 4fa2 7a3e 0d0f adbe
000002f0: 4471 70be 15ab ed3c 04ce 0c3f c715 acbe
00000300: 2e00 84be f65a 84bd 0700 bf3e 0cb0 99be
00000310: 0f43 8bbe 4f8f e3bd 5c7d dcbe d3b8 013e
00000320: ecb8 9dbc a9bf f03d ba87 453e 687c 3a3e
00000330: 7ad9 48be 4319 34bd 8f85 c73e eb0c 51be
00000340: f573 603e ccd9 bdbd 0a04 f73d 12a2 46bd
00000350: 3c0b bbbe 3ba6 ee3e 52f6 6cbe b359 fe3e
00000360: 9caf c4bc 4942 abbd 1382 25be cf58 4ebe
00000370: 3247 31be 6ada b7bd d80c 563e 2fe2 c53e
00000380: 6291 9bbd 8543 12be d1a4 3dbd 2e8e 6ebc
00000390: 2b92 81be e685 373d 6ff0 3ebe bc50 adbe
000003a0: 8987 b2ba 7e53 c4be 9b6e e63d 69b5 b53e
000003b0: bf6d 733d 342d af3c 381d ee3d 8c15 7cbd
000003c0: de27 9bbd 2698 c6be 4def 28bf 9391 96be
000003d0: 6deb cbbc 9592 3f3e f10d febd abb3 21bf
000003e0: 08fd 9f3e d8ac 7e3e 9c20 893e 7ebe 403c
000003f0: f213 913e f2ca 6d3e 63e9 00bf 6895 a0be

net.2.bias f4 [20]
0.008336611 0.0039223633 0.009045626 -0.047184378 0.0092289755 0.009950772 0.020276938 0.019818502
-0.0038880552 -0.019127186 0.016407207 0.02222015 -0.028786011 -0.0049424446 -0.0174701 0.013612831
0.0017966639 -0.0040358333 0.0065397643 -0.028589651
00000000: 4896 083c 2b87 803b 1b34 143c 6844 41bd
00000010: 2135 173c 9008 233c d21b a63c 695a a23c
00000020: bece 7ebb 9eb0 9cbc 6868 863c 0807 b63c
00000030: a4d0 ebbc 3bf4 a1bb 751d 8fbc 5a08 5f3c
00000040: 097e eb3a 063f 84bb 854b d63b d834 eabc

net.4.weight f4 [20, 20]
-0.22785367 -0.026256382 0.029207164 0.13026495 0.117121585 0.020448245 -0.29210615 0.02272485
0.36799824 0.014779868 -0.07086459 -0.05904573 -0.35500878 0.023352755 0.11268699 -0.116254866
0.27339196 0.04588175 -0.29221946 -0.25549635 -0.06932953 0.2107595 0.12196745 0.3407302
-0.33425888 -0.2815689 -0.19223441 0.02465662 0.08240078 0.36163265 0.21659859 0.03383883
-0.30652466 -0.283129 0.272943 -0.36459544 -0.18548831 -0.043420143 0.36286682 0.14420305
-0.17076065 0.21730216 0.0026282282 -0.25118074 0.1511032 -0.12438733 -0.26917398 0.14861375
-0.12771477 -0.67157954 -0.021323688 -0.088271424 0.078056544 -0.2746253 -0.16366567 -0.0042123767
-0.37739006 -0.42948896 0.17734757 -0.17842045 -0.21414201 -0.086918615 -0.022320146 -0.085808255
-0.07906118 -0.029629793 -0.031008009 -0.15546866 0.36797592 -0.16351452 0.06274126 -0.14663273
0.009614752 0.13108549 -0.28300828 -0.051189266 0.46658117 -0.099411234 -0.08000646 -0.005562486
0.027791949 -0.15011878 -0.019827697 -0.07687259 0.12274067 -0.06088588 0.17831194 -0.16417256
0.006418314 -0.31943437 -0.000678791 -0.17862135 0.32965872 0.021907 0.2914742 0.35616812
-0.055611327 -0.12162037 0.11461863 -0.1455871 -0.14812362 -0.22131664 -0.17363034 0.34222254
0.029325735 0.09913985 0.29297724 0.28180155 0.11198688 -0.5048025 0.36402234 -0.3379578
-0.32701048 -0.071774766 0.06957965 0.08946274 0.50360876 0.12866198 -0.2541584 0.5690752
-0.18822853 -0.45376465 0.3194591 -0.015495525 0.23501803 -0.19123487 0.5084257 -0.051262517
-0.21673559 0.094345696 -0.13295968 -0.25634962 0.053080685 0.17143212 -0.026210789 0.10002551
0.16970813 -0.14084202 -0.2946188 0.1752959 -0.42366084 -0.08143 0.20570913 -0.17386797
0.045374453 -0.015293551 -0.036264528 0.2132918 -0.3972781 0.042289015 -0.09098222 -0.1791524
0.058406714 -0.17743732 0.0028089953 -0.16655843 -0.18954785 -0.06217954 0.07413204 0.35012355
0.19023724 -0.4340746 -0.10441317 0.13825569 -0.16544463 -0.088163584 -0.1322297 -0.09532114
-0.026209274 -0.2279536 -0.23155843 -0.09843423 0.44274482 -0.36241034 0.089033626 0.2547907
0.08819414 0.0044836462 -0.3319355 0.10649186 -0.36978903 0.22640853 0.09923271 -0.22451827
-0.024420407 -0.39792895 0.31638026 -0.07725608 -0.0010972125 0.10891688 -0.114071794 0.26150683
-0.07242425 0.4186273 -0.16973771 -0.2955588 0.062481727 -0.05929148 -9.232424e-05 -0.017854666
0.07203952 -0.35491255 0.1461007 0.07533436 -0.063989274 -0.16344996 0.5030976 0.092418894
0.3522907 -0.20624472 0.21235134 -0.15983163 -0.3904412 0.24252024 -0.010257833 -0.11048795
0.23402876 -0.0018650249 -0.4321077 -0.5343257 -0.0755374 0.048448592 -0.17462897 0.10547229
0.17113833 0.11001135 0.30777487 0.31012502 0.15612534 -0.1777319 0.29761922 0.14868325
-0.22874387 0.105216034 -0.02170282 0.070722714 0.16406089 0.100928254 0.12574038 -0.2540352
-0.020368816 -0.110673405 -0.35020694 0.08901912 -0.17213786 -0.44087386 0.2706689 -0.14832576
-0.2340787 0.1505158 -0.0839679 -0.17135425 0.6778966 0.14916079 0.28190455 -0.1458708
00000000: 7952 69be a017 d7bc dd43 ef3c 2d64 053e
00000010: 71dd ef3d 1483 a73c f08e 95be 7729 ba3c
00000020: 446a bc3e 4227 723c 7421 91bd efd9 71bd
00000030: b6c3 b5be 474e bf3c 70c8 e63d 0817 eebd
00000040: 08fa 8b3e 80ee 3b3d ca9d 95be 6bd0 82be
00000050: a4fc 8dbd 57d1 573e 12ca f93d 3074 ae3e
00000060: fb23 abbe cd29 90be 19d9 44be aefc c93c
00000070: bdc1 a83d ea27 b93e 05cc 5d3e 969a 0a3d
00000080: cdf0 9cbe 49f6 90be 2fbf 8b3e 41ac babe
00000090: a6f0 3dbe 52d9 31bd aec9 b93e f7a9 133e
000000a0: e1db 2ebe 7584 5e3e 5a3e 2c3b c39a 80be
000000b0: ccba 1a3e c9be febd 2cd1 89be 342e 183e
000000c0: a9c7 02be a3ec 2bbf 04af aebc a6c7 b4bd
000000d0: 1cdc 9f3d b09b 8cbe f997 27be fa07 8abb
000000e0: 4539 c1be fae5 dbbe 9a9a 353e dab3 36be
000000f0: 0b48 5bbe 6302 b2bd bdd8 b6bc 3dbc afbd
00000100: d4ea a1bd 2eba f2bc 8204 febc 2d33 1fbe
00000110: 5767 bc3e 5a70 27be 7d7e 803d e426 16be
00000120: 3187 1d3c 463b 063e 76e6 90be d6ab 51bd
00000130: bae3 ee3e 1e98 cbbd 6dda a3bd 8445 b6bb
00000140: f1ab e33c bdb8 19be b26d a2bc 606f 9dbd
00000150: 765f fb3d 7963 79bd 6897 363e da1c 28be
00000160: b850 d23b e78c a3be e5f0 31ba 84e8 36be
00000170: 07c9 a83e 4f76 b33c 1b3c 953e ab5b b63e
00000180: b4c8 63bd 1a14 f9bd 2cbd ea3d c914 15be
00000190: b8ad 17be d4a0 62be 27cc 31be cb37 af3e
000001a0: 863c f03c d509 cb3d 1d01 963e 4b48 903e
000001b0: 6159 e53d bd3a 01bf 2361 ba3e ce08 adbe
000001c0: eb6d a7be a6fe 92bd c77f 8e3d 3e38 b73d
000001d0: 81ec 003f f7bf 033e 0d21 82be eaae 113f
000001e0: fbbe 40be d753 e8be 2590 a33e f1e0 7dbc
000001f0: 91a8 703e 13d3 43be 3028 023f a5f8 51bd
00000200: efef 5dbe 5138 c13d 9526 08be 4240 83be
00000210: 226b 593d e78b 2f3e 02b8 d6bc 2dda cc3d
00000220: f8c7 2d3e e438 10be 46d8 96be c580 333e
00000230: 13ea d8be c6c4 a6bd 6aa5 523e 720a 32be
00000240: 90da 393d cd91 7abc 1d8a 14bd 2a69 5a3e
00000250: 0968 cbbe 3f37 2d3d e354 babd ba73 37be
00000260: e13b 6f3d 21b2 35be 1f17 383b 4b8e 2abe
00000270: d518 42be f9af 7ebd 8ad2 973d 6543 b33e
00000280: 8dcd 423e 073f debe 92d6 d5bd e692 0d3e
00000290: 516a 29be 1c8f b4bd 3967 07be bb37 c3bd
000002a0: d5b4 d6bc ab6c 69be a71d 6dbe e397 c9bd
000002b0: 73af e23e d98d b9be 4357 b63d ed73 823e
000002c0: 219f b43d 8deb 923b 73f3 a9be 6718 da3d
000002d0: fd54 bdbe a3d7 673e 853a cb3d 1ee8 65be
000002e0: 4e0d c8bc 58bd cbbe 98fc a13e 7038 9ebd
000002f0: 58d0 8fba d00f df3d 799e e9bd 39e4 853e
00000300: 2a53 94bd 5156 d63e b9cf 2dbe 7c53 97be
00000310: d7ec 7f3d 9fdb 72bd 339e c1b8 f343 92bc
00000320: 7589 933d 19b7 b5be 6c9b 153e e748 9a3d
00000330: cf0c 83bd 6d5f 27be 01cb 003f 1e46 bd3d
00000340: 725f b43e d131 53be a172 593e e7aa 23be
00000350: e9e7 c7be 3a57 783e 7810 28bc 8247 e2bd
00000360: 3ca5 6f3e da73 f4ba 383d ddbe 92c9 08bf
00000370: 5ab3 9abd 0872 463d f0d1 32be db01 d83d
00000380: e33e 2f3e a14d e13d ab94 9d3e b5c8 9e3e
00000390: 52df 1f3e 5aff 35be 8c61 983e 6c40 183e
000003a0: d53b 6abe 817b d73d 1dca b1bc 12d7 903d
000003b0: 94ff 273e 79b3 ce3d 16c2 003e e710 82be
000003c0: 81dc a6bc bda8 e2bd 534e b3be a84f b63d
000003d0: e844 30be 38ba e1be 1d95 8a3e b5e2 17be
000003e0: 54b2 6fbe d020 1a3e 5df7 abbd 7d77 2fbe
000003f0: a28a 2d3f 9bbd 183e cb55 903e 285f 15be

net.4.bias f4 [20]
-0.019982286 -0.02094523 0.018307468 0.026149804 -0.012675162 -0.014789227 -0.03990117 -0.056246508
-0.00842968 -0.0073100063 0.021025248 0.022672454 0.05783803 -0.057368256 0.0141701745 0.024386438
-0.013263882 0.022950027 -0.0054189907 0.017498825
00000000: e4b1 a3bc 5595 abbc 8bf9 953c 1d38 d63c
00000010: 7cab 4fbc 844e 72bc 696f 23bd bd62 66bd
00000020: a41c 0abc c788 efbb 243d ac3c 95bb b93c
00000030: 92e7 6c3d fafa 6abd 052a 683c 11c6 c73c
00000040: c150 59bc b201 bc3c ca91 b1bb b259 8f3c

net.6.weight f4 [20, 20]
-0.28687936 0.048097655 0.11929718 -0.36526254 -0.02417682 -0.14620854 0.17830132 0.3226331
0.19223005 0.19195826 0.27869642 0.15521652 -0.12774913 -0.25196478 -0.05397092 -0.29620707
0.123160504 0.2686545 0.1598847 -0.07685825 -0.21137331 -0.2655682 -0.06285291 -0.0140619045
-0.2801058 -0.19078995 -0.06641575 -0.33208057 0.4244351 -0.019466318 0.2625445 0.054792747
0.7956344 -0.14328767 -0.19451877 -0.12488532 0.2545529 -0.056616105 0.25325823 -0.30106145
0.271489 0.46409157 -0.090228416 0.011110443 -0.4916295 -0.1544934 0.3325651 0.31640232
0.042781577 -0.2660056 -0.059532646 0.22339107 -1.0835949 0.5301205 0.5186834 -0.51385576
-0.6778235 0.019753084 -0.038425744 -0.0013068651 0.124019764 -0.014826781 -0.21832035 -0.5196401
-0.024902603 0.21577087 -0.01869459 -0.34235752 -0.038207833 0.3902868 -0.100990295 -0.39976516
-0.33554175 0.29584548 -0.18249696 -0.35056558 0.26208252 0.23784588 -0.0719048 -0.1375469
-0.055477597 0.106984235 0.2041312 -0.16761594 0.06684585 0.03905647 0.045886453 -0.5796477
0.13969281 0.08998231 0.03939535 -0.31788713 0.634637 -0.42774814 0.08249334 0.302263
0.19998614 0.02858763 0.2725448 -0.29432976 0.028073555 -0.18817353 -0.22225355 0.21451817
0.09838646 0.3332914 0.09338443 -0.21070434 -0.062064983 -0.23185313 -0.45038635 0.19378403
0.04826379 -0.2147703 -0.014233695 0.2456476 0.6856159 -0.24100406 -0.23520143 0.26366398
0.26448157 0.059386697 0.011031216 0.32144853 0.46706164 0.08558403 -0.42092806 -0.34131497
0.017894596 0.1651512 0.31882083 0.72254825 -0.03826773 -0.34895018 -0.06736875 0.0710721
0.37594327 0.37762347 0.48220766 -0.06352776 -0.40524662 0.27408093 0.35617164 -0.2868561
-0.11839202 -0.013299405 -0.5996407 -0.15552844 -0.17002894 0.011493137 0.24038264 -0.0380259
-0.24360594 0.0013820978 0.0385643 0.21477821 -0.1489611 0.30221587 -0.09100031 -0.14820641
0.1341628 0.21776767 -0.43676403 0.59495157 0.28062606 0.009450213 0.10977534 0.17094031
-0.14994891 -0.06737463 -0.47783312 -0.080289304 -0.24878336 -0.025335714 -0.129266 0.21451348
-0.07447991 0.16634217 0.23606835 -0.011910975 -0.17890935 -0.07264562 -0.289123 -0.044278532
-0.28083596 -0.05801906 0.33646855 -0.010131765 0.18319611 -0.0958949 0.029309321 0.35400757
0.25833347 0.26753956 -0.23455925 0.082871325 -0.30874947 0.06782759 -0.01266268 0.05309208
0.13823128 0.09711255 0.0035180952 0.10071897 0.10070036 0.052795533 -0.011858227 0.08702785
0.26440057 0.37225503 -0.15628175 -0.0404252 0.6091079 -0.07770768 0.12373207 0.19912466
0.21177392 -0.51003945 0.08541293 -0.21415567 -0.08165355 0.31306344 0.06669462 -0.09624357
-0.19098607 0.6045819 0.21564992 -0.0012399581 0.1171009 0.16236934 -0.24409863 -0.45609558
-0.4680405 0.24928851 -0.30144894 0.20465496 0.44170377 0.37458047 -0.09016452 -0.171111
0.104526706 0.10060877 0.16865315 0.25797558 0.25375852 -0.21983656 -0.17149861 0.041289847
-0.18327938 -0.018353 0.29956418 -0.25928965 0.118835635 -0.0028826771 -0.29629403 0.15028483
00000000: dae1 92be 0c02 453d 1452 f43d b103 bbbe
00000010: 770e c6bc b1b7 15be 9f94 363e 2a30 a53e
00000020: f4d7 443e b590 443e 4cb1 8e3e 14f1 1e3e
00000030: abd0 02be 8701 81be 9d10 5dbd 74a8 97be
00000040: 933b fc3d 158d 893e d1b8 233e dc67 9dbd
00000050: 3f72 58be 8ef8 87be 07b9 80bd e763 66bc
00000060: 076a 8fbe 715e 43be fb04 88bd 7706 aabe
00000070: 8f4f d93e d477 9fbc 3c6c 863e 5c6e 603d
00000080: b2ae 4b3f 01ba 12be ee2f 47be e0c3 ffbd
00000090: c254 823e 4ae6 67bd 10ab 813e ba24 9abe
000000a0: 9b00 8b3e 699d ed3e adc9 b8bd 9308 363c
000000b0: ddb6 fbbe 8533 1ebe f945 aa3e 7cff a13e
000000c0: bc3b 2f3d e331 88be 81d8 73bd a1c0 643e
000000d0: 3db3 8abf fab5 073f 6fc8 043f 0d8c 03bf
000000e0: d785 2dbf 38d1 a13c 5064 1dbd 1e4b abba
000000f0: 13fe fd3d 07ec 72bc 5f8f 5fbe 2207 05bf
00000100: 8b00 ccbc 0af3 5c3e 6625 99bc 7c49 afbe
00000110: d17f 1cbd acd3 c73e 00d4 cebd 05ae ccbe
00000120: 21cc abbe 0f79 973e 7ce0 3abe 557d b3be
00000130: ae2f 863e df8d 733e d342 93bd 18d9 0cbe
00000140: 7a3c 63bd 8d1a db3d c507 513e 83a3 2bbe
00000150: 7ae6 883d adf9 1f3d 6ff3 3b3d cb63 14bf
00000160: a20b 0f3e a548 b83d 055d 213d 1ac2 a2be
00000170: 9277 223f ce01 dbbe 45f2 a83d 37c2 9a3e
00000180: 2bc9 4c3e 9b30 ea3c fe8a 8b3e 64b2 96be
00000190: 83fa e53c 90b0 40be 6f96 63be a7aa 5b3e
000001a0: d77e c93d 2ca5 aa3e 5640 bf3d e1c2 57be
000001b0: da37 7ebd e86a 6dbe 0a99 e6be 526f 463e
000001c0: 40b0 453d bfec 5bbe 7234 69bc 0b8b 7b3e
000001d0: 8684 2f3f c5c9 76be a5d8 70be f7fe 863e
000001e0: 216a 873e 773f 733d 46bc 343c e794 a43e
000001f0: b422 ef3e ae46 af3d e283 d7be d6c0 aebe
00000200: b097 923c 651d 293e 7c3c a33e ecf8 383f
00000210: a0be 1cbd 99a9 b2be a1f8 89bd 408e 913d
00000220: a37b c03e dd57 c13e ece3 f63e d81a 82bd
00000230: 7c7c cfbe 5654 8c3e 215c b63e cede 92be
00000240: 8477 f2bd bfe5 59bc 0e82 19bf d942 1fbe
00000250: 111c 2ebe b64d 3c3c de26 763e 0cc1 1bbd
00000260: d673 79be 8227 b53a 99f5 1d3d d2ee 5b3e
00000270: 4289 18be 0abc 9a3e 5f5e babd 6cc3 17be
00000280: f961 093e 7dfe 5e3e 899f dfbe bf4e 183f
00000290: 38ae 8f3e 11d5 1a3c e5d1 e03d fa0a 2f3e
000002a0: 358c 19be b6fb 89bd 8ba6 f4be b86e a4bd
000002b0: 11c1 7ebe d88c cfbc 4e5e 04be 6ca9 5b3e
000002c0: ec88 98bd 9a55 2a3e e7bb 713e 4026 43bc
000002d0: 0334 37be 3ac7 94bd ee07 94be 685d 35bd
000002e0: bbc9 8fbe 65a5 6dbd 9b45 ac3e b4ff 25bc
000002f0: c397 3b3e 8c64 c4bd 1a1a f03c 7b40 b53e
00000300: 4944 843e f2fa 883e 4d30 70be 71b8 a93d
00000310: 6914 9ebe 31e9 8a3d 2177 4fbc 1577 593d
00000320: 808c 0d3e f2e2 c63d d88f 663b bf45 ce3d
00000330: fe3b ce3d 2140 583d 0249 42bc a83b b23d
00000340: 835f 873e 3698 be3e 5308 20be e594 25bd
00000350: 7fee 1b3f 3425 9fbd 3d67 fd3d 56e7 4b3e
00000360: 43db 583e f291 02bf f9ec ae3d a04b 5bbe
00000370: fa39 a7bd da49 a03e 3097 883d 591b c5bd
00000380: da91 43be e1c5 1a3f 55d3 5c3e 1786 a2ba
00000390: 99d2 ef3d 2644 263e fef4 79be 5c85 e9be
000003a0: 01a3 efbe 7d45 7f3e 8457 9abe 1291 513e
000003b0: ff26 e23e 03c9 bf3e 2da8 b8bd b937 2fbe
000003c0: 1912 d63d f90b ce3d 69b3 2c3e 6015 843e
000003d0: a3ec 813e d61c 61be 559d 2fbe 8b1f 293d
000003e0: 97ad 3bbe 0859 96bc 7a60 993e 9dc1 84be
000003f0: 1960 f33d 4ceb 3cbb dab3 97be 44e4 193e

net.6.bias f4 [20]
0.020564105 0.026590033 -0.11093003 -0.022218823 0.046859324 -0.0016675524 0.023319324 0.017107232
-0.0065529873 0.047106918 -0.017062545 -0.016860766 -0.013324971 0.016847527 -0.020514058 -0.010958315
-0.00026062303 -0.01574635 -0.018253235 0.017050812
00000000: 0e76 a83c 57d3 d93c 492f e3bd 4004 b6bc
00000010: 90ef 3f3d c691 daba 2b08 bf3c 7724 8c3c
00000020: 71ba d6bb 2ff3 403d c0c6 8bbc 971f 8abc
00000030: fb50 5abc d303 8a3c 190d a8bc 818a 33bc
00000040: 3ba4 88b9 7dfe 80bc cf87 95bc 25ae 8b3c

net.8.weight f4 [5, 20]
0.15603644 0.036664825 0.03412139 -0.25810438 0.31321362 -0.01575319 -0.36594415 0.44016185
0.25541636 0.33538195 -0.06727801 -0.17465761 0.040326875 0.12076273 0.16547129 0.09416093
-0.11242324 -0.0018050888 -0.17607471 0.70150506 -0.3891857 0.34388974 -0.05865702 -0.067815
-0.03798516 -0.13512032 -0.20264027 -0.017602883 -0.3996293 -0.13945466 0.011811045 -0.2572139
-0.54361767 0.0660984 0.120271124 -0.53403825 0.08257586 0.33106261 -0.050203554 -0.23253173
-0.052526694 0.21559551 -0.12914738 -0.5587449 -0.101364 0.018915895 0.4778022 0.1311125
-0.31293276 0.19795503 -0.675743 -0.22649504 -0.53442967 0.060135894 -0.2760049 -0.18580942
0.323222 -0.18313694 -0.61492085 0.052348178 -0.21479712 -0.26120827 0.6346018 0.23000398
-0.48955128 0.040460497 0.14859375 0.057621524 -0.17783837 0.12075292 -0.35427636 0.074078135
-0.41297248 0.10281627 -0.10272688 -0.09175246 0.7182435 0.43797392 0.14954843 0.12023606
-0.006924566 -0.19117853 0.5442543 0.25779882 -0.4572311 -0.9236272 -0.22100621 0.06616602
0.19166255 -0.70266986 -0.115182154 -0.10509844 -0.0036460923 0.039813116 -0.04563389 0.012697069
0.2841227 -0.36006874 -0.12909847 0.18259817
00000000: 04c8 1f3e db2d 163d dfc2 0b3d 4226 84be
00000010: 895d a03e d50c 81bc 085d bbbe e55c e13e
00000020: efc5 823e 2fb7 ab3e 0ec9 89bd 72d9 32be
00000030: cb2d 253d 7352 f73d 4e71 293e 72d7 c03d
00000040: 283e e6bd bb98 ecba ee4c 34be d695 333f
00000050: 5943 c7be 5112 b03e 5842 70bd 97e2 8abd
00000060: 5496 1bbd fb5c 0abe ee80 4fbe ec33 90bc
00000070: 369c ccbe 34cd 0ebe 1d83 413c 8ab1 83be
00000080: 872a 0bbf 995e 873d b550 f63d bbb6 08bf
00000090: 881d a93d 0a81 a93e 3ea2 4dbd cc1c 6ebe
000000a0: 3b26 57bd 12c5 5c3e 363f 04be e809 0fbf
000000b0: ee97 cfbd 82f5 9a3c 7da2 f43e 5b42 063e
000000c0: b938 a0be b9b4 4a3e 7efd 2cbf 51ee 67be
000000d0: 62d0 08bf 0e51 763d 8450 8dbe d344 3ebe
000000e0: 5b7d a53e 4088 3bbe 746b 1dbf 0b6b 563d
000000f0: c7f3 5bbe 17bd 85be 4375 223f 2a86 6b3e
00000100: 77a6 fabe e8b9 253d f628 183e 8c04 6c3d
00000110: 431b 36be 4f4d f73d b663 b5be 47b6 973d
00000120: 2171 d3be 5691 d23d 7862 d2bd b7e8 bbbd
00000130: cede 373f 1e3e e03e 3923 193e 533e f63d
00000140: 78e7 e2bb 4ec4 43be 4054 0b3f 35fe 833e
00000150: 321a eabe d572 6cbf 744f 62be 0d82 873d
00000160: 3043 443e 2ce2 33bf 9fe4 ebbd da3d d7bd
00000170: 47f3 6ebb 1413 233d 9aea 3abd 5e07 503c
00000180: 8878 913e ee5a b8be 6432 04be 04fb 3a3e

net.8.bias f4 [5]
0.018793194 0.011241715 0.019042652 -0.029161274 -0.0073646456
00000000: 2ff4 993c 2c2f 383c 56ff 9b3c a0e3 eebc
00000010: 2053 f1bb
