weights/part.pth (torch, 9621 bytes, 10 tensors)

net.0.weight f4 [20, 2]
-0.3852038 -0.18582153 0.091115914 0.13809644 -0.4995162 0.0084456885 0.2774968 0.09543592
0.13276775 -0.35446677 0.44468933 0.10640459 0.44731098 0.58165 0.15418297 0.28377548
0.16229226 -0.28449667 0.2565854 -0.08817941 0.2515304 -0.04610617 0.18978614 0.5081265
-0.37443104 0.0070102005 -0.45054016 0.023962874 0.11378823 -0.055847723 0.16476582 -0.43902335
-0.50211185 0.086933814 -0.22027363 -0.042026542 0.21656778 -0.33412308 0.26251408 0.12965582
00000000: 6f39 c5be 0048 3ebe fb9a ba3d 2769 0d3e
00000010: 96c0 ffbe c95f 0a3c 1014 8e3e e873 c33d
00000020: 45f4 073e ab7c b5be 52ae e33e a6ea d93d
00000030: f205 e53e 04e7 143f 24e2 1d3e 054b 913e
00000040: f12f 263e 8ca9 91be 295f 833e 6897 b4bd
00000050: 98c8 803e d3d9 3cbd 4c57 423e 9414 023f
00000060: 6db5 bfbe d3b5 e53b 33ad e6be ca4d c43c
00000070: ce09 e93d 95c0 64bd 5fb8 283e abc7 e0be
00000080: 678a 00bf 5b0a b23d 698f 61be 0624 2cbd
00000090: f2c3 5d3e 2e12 abbe 3f68 863e 7fc4 043e

net.0.bias f4 [20]
0.015036092 -0.0012605229 -0.016262686 0.008201652 0.012669358 0.01837668 0.015263308 0.014407667
-0.011807661 0.016551483 -0.017380314 -0.011022078 0.010969965 -0.020699173 -0.019357288 -0.013075724
-0.0038965389 0.019232783 -0.02571097 -0.015043927
00000000: f159 763c 2138 a5ba 5339 85bc 3960 063c
00000010: 2493 4f3c b18a 963c f412 7a3c 230e 6c3c
00000020: eb74 41bc fa96 873c 2961 8ebc f295 34bc
00000030: 5ebb 333c 5091 a9bc 2d93 9ebc 903b 56bc
00000040: 135d 7fbb 128e 9d3c d09f d2bc ce7a 76bc

net.2.weight f4 [20, 20]
0.20991912 0.14416231 -0.05645623 -0.20297259 -0.06517208 0.20372847 -0.11132996 -0.26487085
-0.4456814 -0.42501363 0.29431102 0.14146538 -0.023706293 0.508324 0.111508325 0.3260177
0.25538835 -0.08633439 0.25210103 -0.06661049 -0.03288227 -0.2299499 -0.25269282 0.21216162
0.3431917 -0.062483832 0.09653375 0.49932298 0.29769227 -0.049933728 -0.0886633 0.01743503
0.16246648 0.23724826 -0.17152923 -0.16181403 -0.20524305 -0.39349735 0.015408551 -0.10394448
0.32413584 -0.14605555 -0.21378358 -0.057797745 0.06427147 -0.122966535 -0.49913543 -0.16448325
0.18735248 0.16628145 0.0853585 0.23971441 -0.5673217 0.06815599 0.096679054 0.32052624
0.042579666 -0.20296782 0.053634193 -0.1330583 -0.02784961 -0.08962839 0.056746267 0.12680617
0.05081467 -0.03201933 0.28197664 -0.10902854 -0.023951255 0.07270284 -0.0044227764 0.38911685
-0.14489453 -0.019419508 -0.012918096 -0.005749978 0.13072668 -0.34848997 0.016805008 0.015801942
-0.007504587 -0.16620928 0.41904795 0.20074405 -0.3092639 -0.38374668 0.011831904 0.26070267
-0.07631616 -0.23288257 0.3034516 -0.02021176 -0.03672298 0.008574199 0.3812747 -0.0680936
0.17915593 0.366647 -0.14621682 0.0066165286 0.31089374 -0.06410622 0.2627381 -0.043038942
0.06709705 -0.18570147 0.039348185 0.010703096 -0.38592038 -0.46090218 0.22025827 -0.13709146
0.18376285 0.37869778 0.22329639 -0.026982233 0.27926555 0.302255 -0.06505212 -0.11194226
-0.20477219 0.2845708 0.013880615 -0.22470243 -0.14467336 0.03920374 -0.12064916 -0.21319588
0.100335546 -0.029085612 -0.14018416 -0.14943455 0.332698 -0.09874041 -0.0038460507 -0.20686127
-0.030759322 -0.09125649 -0.08845861 0.0997908 -0.0667192 -0.16882361 -0.10650023 -0.6107261
-0.21257758 -0.4815725 0.06093588 0.21531163 -0.14544444 0.09076518 -0.24417953 0.13696703
0.50613546 0.19778466 0.028821182 -0.2528179 0.08717087 -0.26428023 -0.2936739 -0.09275203
0.021594748 0.02564655 0.34243757 -0.11736157 -0.1222301 0.113350034 -0.023576982 -0.2947885
-0.14916058 -0.17217863 -0.0687296 -0.30993626 0.31268013 -0.040157296 0.31636322 -0.046405442
0.08129937 -0.11200808 -0.1958661 0.21700051 0.3083766 0.16402322 -0.09981055 0.30173132
-0.09537827 0.13882482 0.30175176 0.13784128 -0.22255492 0.25797367 -0.015275622 -0.14784622
0.2630562 -0.004268832 -0.1956752 -0.042518366 -0.12333737 0.45441583 -0.12531237 -0.36750793
0.088158146 -0.09457816 -0.108138785 -0.0804585 0.24982122 0.27661073 0.22111256 -0.012993403
-0.038352422 -0.15112123 0.02333494 -0.45723787 -0.3134402 0.09989659 -0.2725273 0.022158485
0.04311222 -0.0479173 0.08741848 0.38459137 -0.15883903 -0.16369736 -0.07683628 -0.04403882
-0.43774128 -0.21799523 0.23160426 -0.0380601 0.061400115 -0.09373001 0.39177415 0.11699421
-0.019065205 0.2116255 0.02955651 -0.45441622 -0.24435617 0.069610104 0.11824011 0.14144643
0.18119463 0.5599244 0.11868249 -0.07959489 0.16968748 0.19771789 0.17723294 0.27484772
-0.20970145 -0.43914533 0.0040271613 -0.31171623 -0.1392732 0.1630533 0.15958239 0.15124424
00000000: 0af5 563e 499f 133e a63e 67bd 0cd8 4fbe
00000010: f178 85bd 329e 503e f600 e4bd 279d 87be
00000020: 5a30 e4be 639b d9be efaf 963e 4ddc 103e
00000030: b333 c2bc 8621 023f 7a5e e43d cbeb a63e
00000040: 43c2 823e 16d0 b0bd 6313 813e 156b 88bd
00000050: 8faf 06bd fd77 6bbe f460 81be e540 593e
00000060: d3b6 af3e 0cef 7fbd 7db3 c53d 43a7 ff3e
00000070: 1f6b 983e 4f87 4cbd 1b95 b5bd e8d3 8e3c
00000080: 9d5d 263e 35f1 723e 5ca5 2fbe 94b2 25be
00000090: 3c2b 52be 7c78 c9be 2674 7c3c d8e0 d4bd
000000a0: 22f5 a53e 968f 15be 15ea 5abe 54bd 6cbd
000000b0: c3a0 833d e1d5 fbbd ae8e ffbe 4c6e 28be
000000c0: 54d9 3f3e af45 2a3e 70d0 ae3d b277 753e
000000d0: ff3b 11bf 5e95 8b3d abff c53d 041c a43e
000000e0: 0468 2e3d ccd6 4fbe 87af 5b3d 6f40 08be
000000f0: de24 e4bc 178f b7bd c66e 683d 7ad9 013e
00000100: 0b23 503d b326 03bd 3e5f 903e 5b4a dfbd
00000110: 6c35 c4bc 3ae5 943d f0ec 90bb 533a c73e
00000120: 3b5f 14be a915 9fbc 6ca6 53bc 506a bcbb
00000130: 37dd 053e 476d b2be a8aa 893c 1373 813c
00000140: 0ae9 f5bb c432 2abe 748d d63e d98f 4d3e
00000150: d757 9ebe 727a c4be 9ada 413c d27a 853e
00000160: a64b 9cbd c578 6ebe 025e 9b3e 2293 a5bc
00000170: d66a 16bd cc7a 0c3c 7036 c33e a874 8bbd
00000180: a774 373e 28b9 bb3e ddb9 15be 77cf d83b
00000190: 772d 9f3e 1f4a 83bd 9c85 863e 9a49 30bd
000001a0: 2e6a 893d 8728 3ebe 902b 213d 0a5c 2f3c
000001b0: 5b97 c5be 5ffb ebbe 628b 613e b461 0cbe
000001c0: 542c 3c3e ade4 c13e cfa7 643e d809 ddbc
000001d0: e5fb 8e3e 2bc1 9a3e 0c3a 85bd fc41 e5bd
000001e0: cdaf 51be 44b3 913e 856b 633c 6518 66be
000001f0: 4125 14be 1a94 203d e816 f7bd 0550 5abe
00000200: b97c cd3d f344 eebc 708c 0fbe 5f05 19be
00000210: 6457 aa3e 6938 cabd 060e 7cbb 71d3 53be
00000220: f9fa fbbc afe4 babd ca29 b5bd 1e5f cc3d
00000230: 13a4 88bd 19e0 2cbe cb1c dabd 8c58 1cbf
00000240: f0ad 59be ac90 f6be e797 793d a77a 5c3e
00000250: 63ef 14be 18e3 b93d 330a 7abe 1641 0c3e
00000260: 1892 013f 1088 4a3e 661a ec3c 5971 81be
00000270: a486 b23d bd4f 87be 6d5c 96be c7f4 bdbd
00000280: 78e7 b03c b718 d23c fa53 af3e 435b f0bd
00000290: c653 fabd 1024 e83d 8424 c1bc 85ee 96be
000002a0: 8dbd 18be 984f 30be 1bc2 8cbd f7af 9ebe
000002b0: 9c17 a03e fa7b 24bd 5cfa a13e a213 3ebd
000002c0: 4980 a63d 7e64 e5bd 1f91 48be 6235 5e3e
000002d0: 8ae3 9d3e b4f5 273e 7969 ccbd 877c 9a3e
000002e0: af55 c3bd 1828 0e3e 357f 9a3e 4426 0d3e
000002f0: 70e5 63be 2015 843e 9a46 7abc 0065 17be
00000300: 4daf 863e 8fe1 8bbb 145f 48be bd27 2ebd
00000310: 4e98 fcbd 31a9 e83e e351 00be 002a bcbe
00000320: 428c b43d 32b2 c1bd de77 ddbd 6dc7 a4bd
00000330: 22d1 7f3e ec9f 8d3e 556b 623e 48e2 54bc
00000340: 6e17 1dbd 86bf 1abe eb28 bf3c 151b eabe
00000350: 3c7b a0be 9596 cc3d b388 8bbe b685 b53c
00000360: 7096 303d ee44 44bd 7608 b33d 29e9 c43e
00000370: b3a6 22be 48a0 27be 575c 9dbd 0d62 34bd
00000380: a01f e0be 243a 5fbe ab29 6d3e e8e4 1bbd
00000390: b07e 7b3d 85f5 bfbd 9f96 c83e a99a ef3d
000003a0: a22e 9cbc 5bb4 583e 7e20 f23c 3ea9 e8be
000003b0: 8138 7abe be8f 8e3d df27 f23d 55d7 103e
000003c0: 168b 393e 3557 0f3f ce0f f33d a502 a3bd
000003d0: 8ec2 2d3e 8f76 4a3e 8d7c 353e d7b8 8c3e
000003e0: fabb 56be a8d7 e0be 47f6 833b 4599 9fbe
000003f0: a29d 0ebe 72f7 263e 9169 233e c5df 1a3e

net.2.bias f4 [20]
-0.017063724 -0.012575486 -0.017509807 -0.0044506975 -0.016173549 -0.010368738 -0.014795147 0.022730697
-0.013077867 0.016242394 -0.0013083797 -0.032632615 -0.018792052 0.019356595 0.02278464 0.010550708
-0.01643615 0.006331346 -0.008832883 -0.029235238
00000000: 39c9 8bbc 6909 4ebc ba70 8fbc 28d7 91bb
00000010: 647e 84bc a4e1 29bc 5867 72bc ba35 ba3c
00000020: 8d44 56bc c50e 853c f07d abba c7a9 05bd
00000030: caf1 99bc b991 9e3c daa6 ba3c e0dc 2c3c
00000040: 1ba5 86bc 2e77 cf3b ccb7 10bc bd7e efbc

net.4.weight f4 [20, 20]
-0.45351166 0.39367655 -0.22095971 0.20600697 -0.22856061 0.6559956 0.0010260001 -0.39260438
0.11026902 0.19076455 -0.17789923 -0.43478277 0.07456113 -0.020500917 -0.011162139 0.032831468
0.18418124 0.39402047 -0.047553733 0.41977456 0.22937767 0.0061401986 -0.28331575 0.5715606
-0.14035158 -0.12800495 -0.044608407 0.071905926 0.0751879 0.044537198 -0.0044060918 -0.19532798
0.024627574 -0.13410445 0.003393048 0.1345767 -0.19930327 0.5701737 -0.036237717 0.1262817
-0.08188511 0.028724652 -0.3499512 0.23288405 -0.35892045 -0.29198718 0.16501315 0.34633586
0.12638947 0.023724962 0.41439122 -0.13392287 0.14897908 -0.09522639 0.41995844 0.08646222
0.23270537 0.18656974 0.28822306 -0.31391394 -0.04608758 -0.030059239 -0.045342058 0.25339356
0.27136442 -0.24003342 0.59387356 -0.52534574 -0.072404 0.031043146 0.06678574 -0.009935712
0.17088051 0.0019806165 -0.2832405 0.28827304 -0.29274115 0.027090672 -0.095293194 -0.07042298
-0.23879819 -0.30809462 -0.28074202 -3.9984556e-05 -0.3254205 0.006042929 -0.18223052 0.07401721
0.012919456 -0.036523074 -0.24501452 -0.11945815 -0.5986151 -0.14575925 -0.051135503 -0.26409662
-0.11739974 0.032471698 0.039260138 0.06844623 -0.1540968 0.074537635 0.4325347 0.06900222
-0.18417509 0.21897236 0.10063788 -0.23207818 -0.01689019 0.23556925 0.32486537 -0.2529204
0.0053646546 0.11534637 -0.023590837 0.079087675 -0.3390051 0.059202407 0.27411267 -0.18759558
0.027224578 -0.42168334 0.09998833 -0.05183208 0.049186166 -0.10648219 -0.17661302 -0.14331524
-0.33248892 -0.17187892 0.042342756 0.017954184 -0.112814926 0.27142453 0.14757024 0.2384171
0.023251107 -0.75563866 -0.11553601 0.06347739 0.11265373 0.10548572 0.47553718 0.3173888
0.052469358 -0.026539473 -0.34847423 0.02405907 0.28994876 -0.19741958 0.24547988 0.12859315
0.084988184 -0.4048605 -0.34490538 0.24219587 0.11376874 0.12276824 0.18789516 0.21587373
0.0852188 0.016762912 -0.020906478 0.05872811 -0.27431974 -0.10034176 -0.090893045 0.07001271
-0.08253741 -0.13108045 -0.47220203 -0.21712825 0.07135919 -0.49501672 0.011432905 -0.13506863
0.28578895 -0.04769279 0.024357712 -0.1449119 -0.10194037 0.15217881 0.49890625 0.10827291
-0.17970608 -0.24138398 0.13215208 0.39432773 0.015554964 0.2858173 0.29463458 -0.019474465
0.043896217 0.046335377 -0.26349598 0.105829634 -0.46126664 0.33576655 -0.32282734 -0.015359917
-0.18397714 0.020444121 0.09233937 -0.2624711 0.33765063 -0.36517283 -0.110554986 0.084219694
0.21878791 -0.13742997 0.35570166 0.27725974 0.17547022 0.05967803 0.19831392 -0.037262928
0.014641047 0.12782834 -0.11492768 0.123823635 0.061070286 -0.2857432 0.13792533 0.1347246
-0.091673166 0.08134268 0.022668507 -0.10437331 -0.07085915 -0.030350318 0.2275466 -0.43772727
0.04983919 0.21503483 -0.10046214 -0.310227 0.18110164 -0.30510995 0.056199037 -0.38585544
0.37076148 0.3131696 0.22434865 0.23325616 -0.38534144 -0.1997589 -0.0486953 -0.09805907
0.03296547 0.17711368 -0.21778987 -0.389752 0.17354168 -0.3630375 0.26765332 -0.052088622
00000000: ae32 e8be f98f c93e 4343 62be 7ef3 523e
00000010: cb0b 6abe 54ef 273f da7a 863a 7103 c9be
00000020: b9d4 e13d c857 433e 372b 36be d99b debe
00000030: 81b3 983d 8af1 a7bc 67e1 36bc 4a7a 063d
00000040: 029a 3c3e 0dbd c93e b4c7 42bd b1ec d63e
00000050: fbe1 6a3e b833 c93b c30e 91be cc51 123f
00000060: 53b8 0fbe bb13 03be 4eb7 36bd 6a43 933d
00000070: 1dfc 993d a36c 363d fa60 90bb 0f04 48be
00000080: c4bf c93c ad52 09be e65d 5e3b 79ce 093e
00000090: 2816 4cbe e7f6 113f 006e 14bd fd4f 013e
000000a0: 61b3 a7bd f64f eb3c ce2c b3be 2879 6e3e
000000b0: 6cc4 b7be 587f 95be 35f9 283e ef52 b13e
000000c0: 3e6c 013e da5a c23c 162b d43e 1423 09be
000000d0: f98d 183e 0e06 c3bd cb04 d73e 1b13 b13d
000000e0: 514a 6e3e 230c 3f3e f991 933e 54b9 a0be
000000f0: 55c6 3cbd cb3e f6bc 98b8 39bd cdbc 813e
00000100: 47f0 8a3e 52cb 75be 1908 183f 0f7d 06bf
00000110: 8c48 94bd 324e fe3c f6c6 883d 66c9 22bc
00000120: 4dfb 2e3e 3bcd 013b e604 91be 8698 933e
00000130: 2be2 95be 42ed dd3c 1429 c3bd ec39 90bd
00000140: 8387 74be 94be 9dbe 6bbd 8fbe 17b5 27b8
00000150: 849d a6be c303 c63b a39a 3abe 5696 973d
00000160: 20ac 533c 3899 15bd 16e5 7abe 79a6 f4bd
00000170: d73e 19bf ea41 15be 7673 51bd ac37 87be
00000180: 466f f0bd 0b01 053d 3dcf 203d 892d 8c3d
00000190: 8dcb 1dbe 30a7 983d 3075 dd3e 0951 8d3d
000001a0: 6598 3cbe 4a3a 603e 3c1b ce3d e7a5 6dbe
000001b0: 4c5d 8abc 1139 713e c154 a63e c87e 81be
000001c0: fcc9 af3b b83a ec3d 9241 c1bc b8f8 a13d
000001d0: 1492 adbe 397e 723d 7f58 8c3e 0e19 40be
000001e0: 1406 df3c e1e6 d7be aec6 cc3d e04d 54bd
000001f0: 6f77 493d 5613 dabd 0bda 34be 3bc1 12be
00000200: fd3b aabe 0701 30be 996f 2d3d a714 933c
00000210: 830b e7bd 28f8 8a3e a71c 173e 9d23 743e
00000220: 1b79 be3c 8971 41bf 259e ecbd 6f00 823d
00000230: 00b7 e63d e608 d83d 9c79 f33e c980 a23e
00000240: 1cea 563d 4f69 d9bc 376b b2be 8717 c53c
00000250: 2a74 943e 5c28 4abe 145f 7b3e ecad 033e
00000260: 490e ae3d e049 cfbe 7097 b0be 3202 783e
00000270: 96ff e83d ea6d fb3d 9767 403e 010e 5d3e
00000280: 3287 ae3d 6052 893c 1044 abbc e38c 703d
00000290: a373 8cbe fb7f cdbd 2226 babd d362 8f3d
000002a0: 6009 a9bd f439 06be 77c4 f1be de56 5ebe
000002b0: c424 923d d572 fdbe 1451 3b3c 6e4f 0abe
000002c0: ee52 923e 8459 43bd d389 c73c c963 14be
000002d0: 1dc6 d0bd c3d4 1b3e a470 ff3e 30be dd3d
000002e0: df04 38be 5d2d 77be e052 073e 53e5 c93e
000002f0: 3fda 7e3c a556 923e 58da 963e ea88 9fbc
00000300: 85cc 333d 2aca 3d3d f2e8 86be 35bd d83d
00000310: 242b ecbe 98e9 ab3e a049 a5be 29a8 7bbc
00000320: 8164 3cbe 6e7a a73c 6c1c bd3d 9d62 86be
00000330: 8be0 ac3e eff7 babe a76a e2bd 607b ac3d
00000340: f009 603e 71ba 0cbe 871e b63e fdf4 8d3e
00000350: 77ae 333e f370 743d ce12 4b3e 03a1 18bd
00000360: 01e1 6f3c 6fe5 023e 345f ebbd 3f97 fd3d
00000370: d624 7a3d ef4c 92be 4c3c 0d3e 3ff5 093e
00000380: 24bf bbbd fe96 a63d 4eb3 b93c adc1 d5bd
00000390: 9a1e 91bd 3ba1 f8bc fa01 693e ca1d e0be
000003a0: 2e24 4c3d 1732 5c3e 18bf cdbd 13d6 9ebe
000003b0: b572 393e 5f37 9cbe f630 663d d88e c5be
000003c0: 73d4 bd3e c457 a03e a7bb 653e b4da 6e3e
000003d0: 794b c5be 998d 4cbe b974 47bd 32d3 c8bd
000003e0: cd06 073d 4a5d 353e 4f04 5fbe 938d c7be
000003f0: e9b4 313e 0de0 b9be db09 893e e15a 55bd

net.4.bias f4 [20]
0.011529417 0.015847348 0.01979313 -0.05889214 0.025471112 0.026640033 0.020460015 -0.019365236
-0.018915681 0.013978835 -0.0137117775 0.020774806 0.020362234 -0.028076122 0.016318206 0.017490689
-0.013716217 0.012815865 0.014557225 0.022087196
00000000: e1e5 3c3c 4cd2 813c 3425 a23c e238 71bd
00000010: cba8 d03c 333c da3c c39b a73c d8a3 9ebc
00000020: 0ff5 9abc 7c07 653c 5da7 60bc ed2f aa3c
00000030: b3ce a63c e5ff e5bc c2ad 853c a248 8f3c
00000040: fcb9 60bc a2f9 513c 6d81 6e3c 35f0 b43c

net.6.weight f4 [20, 20]
-0.079023324 -0.29857993 -0.16379447 -0.25392127 0.3727001 0.213011 0.01979163 -0.055710465
-0.06213857 -0.20728245 0.047921736 -0.0761801 0.22372304 -0.018700339 -0.115809835 0.0031682893
-0.38146836 -0.25916556 0.08813431 0.082518354 0.6567217 0.2562766 -0.123278126 0.19640872
-0.53492886 -0.5009194 -0.04756278 0.30975226 -0.072681695 0.53051716 -0.29822126 -0.16704564
-0.030038984 0.40266758 0.07290696 0.31369415 0.18166022 -0.05986161 0.18448853 -0.23565294
0.35075635 -0.14075997 -0.3115704 -0.15256992 0.47426605 -0.21613504 -0.18432319 0.32456434
-0.15248725 -0.023386076 0.12666313 0.11411648 -0.19478221 -0.33094317 -0.17279287 0.14857021
0.009757763 0.27654058 -0.11667809 0.110343315 -0.041762732 -0.43813667 0.021834087 -0.3128756
-0.14691246 -0.23462987 0.07953676 0.14611013 0.3205991 0.076409526 -0.16444245 -0.21546616
-0.05365317 -0.09613872 0.060137536 -0.3571039 -0.051303897 -0.15573232 0.036270503 -0.12159774
0.2698446 -0.15159538 -0.5394059 -0.14022188 0.23852476 -0.35464436 0.2906181 0.2962924
0.028205061 -0.253321 -0.20208792 0.06878027 0.090856105 -0.15485133 -0.07032464 -0.5713454
0.090422444 -0.065487914 -0.048016928 0.18153907 -0.29786602 0.06909612 -0.27906266 -0.10996096
0.053168654 0.32593596 0.09853508 0.3940339 0.008724602 0.23824021 -0.6016978 0.08968866
0.12068898 0.1856788 -0.34098563 0.0365832 -0.012505589 -0.19828485 -0.05625075 -0.37389442
-0.3441401 -0.28613812 0.5341835 0.12079534 -0.2294091 -0.10423688 -0.05281364 0.3053097
0.046646018 -0.14892587 -0.054834772 -0.082555 -0.21835384 0.22556034 -0.30887422 0.2505546
-0.008396602 0.4180713 -0.13430686 -0.4439721 0.06301028 0.070338584 0.11536541 -0.1875578
0.047805574 0.31150523 0.050432276 -0.11431704 -0.07753775 -0.15133148 -0.10911208 -0.29051685
0.10354744 0.017402954 0.14672889 0.08119836 0.4798023 0.15805297 -0.31072265 0.07750379
0.28825617 0.16175288 -0.36536998 -0.07381411 -0.008563375 0.32474896 -0.46501988 -0.10762783
0.061006144 0.107090816 -0.2662016 -0.17032382 0.2171235 0.25422677 0.29220065 0.10096855
0.003631663 -0.014949061 0.07703359 -0.25492597 -0.30765164 0.11124996 0.06714584 0.122384116
-0.15798199 0.047227595 -0.1145611 -0.06693208 0.24177732 -0.019689579 -0.18632823 -0.00023640339
0.05207711 0.27302745 -0.06484062 -0.16692914 0.26602086 -0.21656066 -0.129016 0.024597425
0.09371969 -0.2688122 -0.118727066 -0.008705799 0.37375945 -0.30700156 0.13910186 -0.1297118
0.05148154 -0.13106741 0.07203307 -0.026411457 -0.1521712 0.16753952 0.21772465 -0.045815393
-0.30967307 -0.3349918 -0.23448071 -0.24684888 -0.062318247 -0.25690845 0.1175559 -0.047844764
0.4057374 -0.11168542 0.45270663 -0.3211087 0.18009034 0.049681537 -0.33355802 0.2712663
0.23487753 0.1938224 0.17486283 0.1858928 -0.4957072 -0.53294885 -0.1003252 0.04678687
0.28390718 0.08169993 -0.13219436 0.023665432 0.0858338 0.28417477 0.15253136 -0.0075234976
0.2074927 0.30354428 0.098026134 -0.03926448 0.118738234 0.105849884 -0.10901807 -0.10718773
00000000: fbd6 a1bd 78df 98be bdb9 27be f801 82be
00000010: 8cd2 be3e 8e1f 5a3e 0e22 a23c a830 64bd
00000020: 0385 7ebd da41 54be 9549 443d 5004 9cbd
00000030: a717 653e 7431 99bc b52d edbd 13a3 4f3b
00000040: d24f c3be 59b1 84be c37f b43d 62ff a83d
00000050: ea1e 283f b036 833e 3e79 fcbd 5e1f 493e
00000060: 19f1 08bf 413c 00bf 31d1 42bd d997 9e3e
00000070: 24da 94bd f9cf 073f 75b0 98be 030e 2bbe
00000080: 5114 f6bc 722a ce3e 3f50 953d 859c a03e
00000090: 2305 3a3e 7331 75bd 90ea 3c3e 014f 71be
000000a0: 5696 b33e 6223 10be 2886 9fbe 4a3b 1cbe
000000b0: 00d3 f23e 8152 5dbe 38bf 3cbe 4c2d a63e
000000c0: 9e25 1cbe 2894 bfbc fbb3 013e e7b5 e93d
000000d0: fd74 47be 6271 a9be 9df0 30be ca22 183e
000000e0: 06df 1f3c ba96 8d3e ecf4 eebd adfb e13d
000000f0: 660f 2bbd 7353 e0be 66dd b23c 3b31 a0be
00000100: 3870 16be d042 70be 2be4 a23d e59d 153e
00000110: 9125 a43e 997c 9c3d 9a63 28be 29a3 5cbe
00000120: 6dc3 5bbd 61e4 c4bd c752 763d 53d6 b6be
00000130: 0924 52bd 4b78 1fbe 6190 143d 3c08 f9bd
00000140: 1229 8a3e d23b 1bbe 8116 0abf 5396 0fbe
00000150: d63f 743e f293 b5be e5cb 943e a3b3 973e
00000160: 4d0e e73c 4ab3 81be 23f0 4ebe acdc 8c3d
00000170: c412 ba3d 5991 1ebe 5d06 90bd b143 12bf
00000180: 672f b93d 871e 86bd 66ad 44bd 61e5 393e
00000190: e581 98be 4482 8d3d 4de1 8ebe 3633 e1bd
000001a0: 60c7 593d 14e1 a63e c3cc c93d d0be c93e
000001b0: a2f1 0e3c 3ef5 733e de08 1abf b0ae b73d
000001c0: c92b f73d 9522 3e3e ab95 aebe 44d8 153d
000001d0: 3ee4 4cbc 2f0b 4bbe 3067 66bd 176f bfbe
000001e0: 2233 b0be b280 92be 40c0 083f 8c63 f73d
000001f0: 38ea 6abe 257a d5bd 1e53 58bd 8e51 9c3e
00000200: e50f 3f3d 0680 18be 6d9a 60bd 9912 a9bd
00000210: 2698 5fbe 4af9 663e c324 9ebe b148 803e
00000220: e791 09bc 710d d63e bd87 09be 5050 e3be
00000230: 890b 813d ad0d 903d b344 ec3d 270f 40be
00000240: c7cf 433d 9d7d 9f3e 1392 4e3d 0d1f eabd
00000250: 1dcc 9ebd a4f6 1abe 2776 dfbd a0be 94be
00000260: ae10 d43d a490 8e3c 1940 163e 534b a63d
00000270: a6a8 f53e a3d8 213e 0a17 9fbe 4fba 9e3d
00000280: 5096 933e 8ca2 253e c611 bbbe da2b 97bd
00000290: 664d 0cbc 7f45 a63e 1617 eebe fb6b dcbd
000002a0: 94e1 793d 6e52 db3d 934b 88be 5e69 2ebe
000002b0: 9f55 5e3e 032a 823e 539b 953e 99c8 ce3d
000002c0: 3201 6e3b e8ec 74bc c9c3 9d3d a885 82be
000002d0: 8484 9dbe 05d7 e33d c283 893d 86a4 fa3d
000002e0: 08c6 21be b971 413d 039f eabd b013 89bd
000002f0: 7994 773e 0a4c a1bc d4cc 3ebe 0de3 77b9
00000300: cf4e 553d 41ca 8b3e 29cb 84bd 79ef 2abe
00000310: e333 883e 14c2 5dbe c51c 04be 8a80 c93c
00000320: 1cf0 bf3d c1a1 89be 2d27 f3bd c4a2 0ebc
00000330: 665d bf3e 4f2f 9dbe b870 0e3e 2cd3 04be
00000340: 4fde 523d 8936 06be 1386 933d d75c d8bc
00000350: c4d2 1bbe 7b8f 2b3e 36f3 5e3e eca8 3bbd
00000360: 788d 9ebe 0c84 abbe b61b 70be f4c5 7cbe
00000370: 6b41 7fbd 8189 83be 26c1 f03d dff8 43bd
00000380: d0bc cf3e 53bb e4bd 2ac9 e73e 5c68 a4be
00000390: 9a69 383e de7e 4b3d 1ec8 aabe 6be3 8a3e
000003a0: bc83 703e 6179 463e 3e0f 333e af5a 3e3e
000003b0: 56cd fdbe 566f 08bf 4c77 cdbd 97a3 3f3d
000003c0: 485c 913e 4b52 a73d f55d 07be 02de c13c
000003d0: a2c9 af3d 5b7f 913e 2e31 1c3e ac87 f6bb
000003e0: f778 543e 286a 9b3e edc1 c83d cbd3 20bd
000003f0: 082d f33d d3c7 d83d de44 dfbd 3e85 dbbd

net.6.bias f4 [20]
-0.018667325 -0.01728206 0.00431569 -0.021763962 -0.010618639 0.0063059283 -0.015315595 -0.015145955
-0.016913906 -0.028965104 -0.016815025 0.019705497 0.010109826 0.017049605 0.010048275 0.017382968
-0.019582052 -0.024989389 -0.012588742 0.01485874
00000000: 38ec 98bc 1b93 8dbc a26a 8d3b 564a b2bc
00000010: cdf9 2dbc f6a1 ce3b 43ee 7abc bd26 78bc
00000020: 088f 8abc 3a48 edbc aabf 89bc 6c6d a13c
00000030: afa3 253c 9dab 8b3c 85a1 243c ba66 8e3c
00000040: 8a6a a0bc 8cb6 ccbc 0341 4ebc 1372 733c

net.8.weight f4 [5, 20]
-0.23041981 0.34213454 0.90036434 -0.25184605 -0.09571638 0.29117104 -0.21200097 0.04959252
0.57913375 0.21440797 0.13701357 0.76377213 0.27309257 0.015231087 0.17556728 -0.24199034
0.3112723 0.1943223 -0.34931138 -0.23325497 -0.17283285 0.05691217 0.0034896901 0.29503587
-0.068915725 0.047675885 -0.00991954 -0.6267332 -0.09435793 -0.26002955 -0.26843482 0.03149411
-0.019595575 -0.036066495 0.37630838 -0.50485617 -0.10881159 -0.31141657 0.008187238 0.5571407
-0.69996125 -0.17164057 0.083529584 -0.8324376 -0.104750276 -0.010817702 -0.36017287 -0.31913036
-0.22887607 -0.14176539 -0.156519 0.32572547 0.024355503 0.135509 0.014212141 0.860621
-0.5677484 0.018683644 -0.09656721 0.118647754 0.12910429 0.3352607 0.28904834 -0.08230568
-0.18624869 -0.04127868 -0.0009520672 0.12184377 -0.12584701 0.46169135 0.36690927 -0.2507958
-0.111245334 0.64950866 0.48129958 -0.12956163 0.10170461 0.00011636086 0.009353132 0.08894128
0.07987888 -0.22398841 0.47461948 -0.48397204 0.26638252 -0.1122132 0.33546516 0.5711458
0.14613578 0.07380186 -0.3161782 0.026831588 -0.2217324 0.41912842 -0.1179832 -0.4092586
0.06435449 -0.07092627 0.06743214 -0.3352431
00000000: 2cf3 6bbe 422c af3e 477e 663f f7f1 80be
00000010: f306 c4bd 5f14 953e c816 59be 8721 4b3d
00000020: 1c42 143f c38d 5b3e 494d 0c3e 9286 433f
00000030: cad2 8b3e cf8b 793c e9c7 333e 51cc 77be
00000040: 155f 9f3e 6dfc 463e f1d8 b2be 64da 6ebe
00000050: 18fb 30be bc1c 693d 49b3 643b f10e 973e
00000060: b023 8dbd ca47 433d 9185 22bc 9671 20bf
00000070: bb3e c1bd 9822 85be 4a70 89be f8ff 003d
00000080: e686 a0bc 76ba 13bd 7eab c03e 413e 01bf
00000090: 9cd8 debd fe71 9fbe c423 063c c6a0 0e3f
000000a0: a930 33bf 8cc2 2fbe 8f11 ab3d a11a 55bf
000000b0: 5087 d6bd bb3c 31bc 9468 b8be 0e65 a3be
000000c0: 7d5e 6abe f22a 11be 8446 20be 7dc5 a63e
000000d0: 3185 c73c dfc2 0a3e 0ada 683c a851 5c3f
000000e0: f657 11bf 710e 993c 08c5 c5bd 98fd f23d
000000f0: ea33 043e 4aa7 ab3e 25fe 933e e18f a8bd
00000100: fab7 3ebe d513 29bd 2694 79ba 3a89 f93d
00000110: 0ade 00be cf62 ec3e 88db bb3e 4f68 80be
00000120: 98d4 e3bd 3346 263f e66c f63e ceab 04be
00000130: 824a d03d c306 f438 e13d 193c d926 b63d
00000140: 8a97 a33d 385d 65be 5301 f33e 2fcb f7be
00000150: 4a63 883e 09d0 e5bd 17c2 ab3e 9c36 123f
00000160: 9ea4 153e 6e25 973d 1ce2 a1be ebcd db3c
00000170: d10d 63be 0098 d63e 2da1 f1bd 588a d1be
00000180: 49cc 833d cb41 91bd dd19 8a3d fca4 abbe

net.8.bias f4 [5]
-0.002982749 0.021055672 0.018817017 0.0022964024 -0.0069113853
00000000: 397a 43bb f27c ac3c 2526 9a3c 3d7f 163b
00000010: e778 e2bb
