weights/uv_model.pth (torch, 147653 bytes, 18 tensors)

net.0.weight f4 [70, 2]
000000 f0 31 e2 3d 45 3e 98 3e 4d 82 05 3e 31 7e 01 3e
       0.11044681 0.29735008 0.13037987 0.12645794
000010 91 63 38 3e b4 ea ae 3c 31 6b 8a 3d 2c 11 50 be
       0.18006732 0.02135215 0.067587264 -0.2031905
000020 c5 17 67 be 73 80 8a be 72 93 9b 3d 9c 89 82 be
       -0.22567661 -0.27051124 0.07596482 -0.25495613
000030 36 21 33 be e7 8f 5c 3d 1c 9f 82 3c dd 69 9d bd
       -0.17493138 0.053848173 0.01594501 -0.076862074
000040 35 fb 0f be 47 2e a5 3c dc 43 fa 3d 3c 97 50 be
       -0.14060672 0.020163668 0.122199744 -0.20370191
000050 ce 48 e6 3d a7 5b ae bd 22 25 33 bd 35 d8 37 3e
       0.11244355 -0.08513575 -0.043736584 0.1795357
000060 98 73 45 be 78 b6 60 3e cc 04 6e bd 07 92 b0 3e
       -0.19282377 0.21944606 -0.058110043 0.3448641
000070 91 0d dd bd fd e5 fa 39 53 2d 37 bd e4 28 bf be
       -0.10793603 0.0004785507 -0.04472096 -0.37335885
000080 91 89 01 be 71 d2 7d 3d 81 b4 7b 3e 2b f3 69 be
       -0.12650134 0.06196827 0.24580576 -0.22846667
000090 3e 2a 9f 3d 41 3e 0c 3f 99 b4 15 bc 0e 5a 71 bd
       0.07771729 0.5478249 -0.009137296 -0.058923773
0000a0 4d f8 42 bc c4 7d 0d be f5 42 62 3d 5e a9 57 bd
       -0.01190002 -0.13817507 0.055239636 -0.052651756
0000b0 82 32 c9 3e 5b ad 7d be f9 16 cc 3c d7 ca 38 3d
       0.39296347 -0.24773161 0.024913298 0.04511532
0000c0 ae 68 50 3e c7 10 ae 3d df ee e7 3b 4c b4 a9 be
       0.20352432 0.08499294 0.007078036 -0.33145368
0000d0 1b 8f c2 bd df 36 ce 3d a8 26 fc 3d 74 82 c1 3d
       -0.094999515 0.100690596 0.123120606 0.0944871
0000e0 8d ac ae bd d1 a4 8c be 84 96 6c 3e 78 57 64 3e
       -0.08529005 -0.27469495 0.23104292 0.22298992
0000f0 7b 4c e1 3c aa df 38 bd 99 1e 4b be b4 19 7f 3e
       0.027502289 -0.045135178 -0.19835891 0.24912149
000100 7b c8 32 3e 34 a0 37 3e ca aa 35 be 7f 59 42 be
       0.1745929 0.17932206 -0.17740932 -0.18979453
000110 c7 e1 88 bc 08 ab 4b be 29 5c 01 be 97 61 62 be
       -0.016709222 -0.19889462 -0.12632813 -0.2210754
000120 c9 2a fc 3d 24 de 02 3e 0f c9 d1 3b 73 b7 23 3d
       0.12312848 0.12780052 0.006402142 0.039969873
000130 58 43 09 bd 71 68 b1 bc f4 38 85 bd 12 82 17 be
       -0.03351149 -0.021656247 -0.065050036 -0.14795712
000140 be e1 4b bd 78 8b 10 be 0d af ef 3c a6 c1 de bd
       -0.04977583 -0.14115703 0.029258275 -0.10876779
000150 19 34 b3 be a6 fa 3d 3e 47 71 12 3e 0a 50 87 3e
       -0.35000685 0.18552646 0.14301024 0.26428252
000160 23 32 f7 bd 1c cf 35 3e a1 6c 06 be 02 84 02 be
       -0.1207011 0.17754787 -0.13127376 -0.1274567
000170 cf c6 81 3e b4 44 eb 3d fc 2b 49 3d 89 a8 f9 bb
       0.2534699 0.114877135 0.049114212 -0.007618968
000180 44 e6 a2 be 28 06 03 be 04 cc 29 bd a4 54 7f be
       -0.31816304 -0.12795317 -0.04145433 -0.24934632
000190 2b fc 98 bc 00 46 54 be 7e c5 8c 3e 1e 73 9a 3d
       -0.01867493 -0.20729828 0.27494425 0.07541488
0001a0 4a 92 40 3e 6c 70 51 3c e2 52 11 3e 1a e0 45 be
       0.18805805 0.012783151 0.14191774 -0.19323769
0001b0 b9 4c 71 be 18 27 3a be a6 05 66 bd 9b 71 56 bd
       -0.23564424 -0.18178976 -0.05615773 -0.052354436
0001c0 1b 7a 83 3d 47 c0 08 be 78 83 9a 3e d7 1d cf bd
       0.06419774 -0.13354598 0.30178428 -0.101131134
0001d0 8c a7 fb 3b b8 50 9d bd 5d 9c 06 be 79 67 ac bc
       0.0076798853 -0.076814115 -0.13145585 -0.021045433
0001e0 a6 69 fe bd 4f 20 c4 be b4 9d 9c 3a ba ba 55 be
       -0.124224946 -0.383059 0.0011948855 -0.20872012
0001f0 0d 39 a9 3e bc 86 cb bd 9f d5 2a 3d 0d 79 69 3e
       0.3305134 -0.09937808 0.04170763 0.22800083
000200 5c 53 e4 3b 92 85 3b 3e c9 01 b6 be 54 13 af 3e
       0.006967945 0.18312672 -0.35548237 0.34194434
000210 90 3c 03 bc 95 4e c8 bd f5 a2 c6 bd 22 f4 92 3d
       -0.008010045 -0.09780613 -0.0969905 0.07175471
000220 d2 07 99 3e 48 0e 0d be 64 d3 9b 3d db 68 22 3e
       0.2988878 -0.13774979 0.07608679 0.15860312

net.0.bias f4 [70]
000000 5e e2 94 bc e0 d4 db bc 03 e5 3b bd 6e 72 a6 3c
       -0.018174347 -0.026834905 -0.0458727 0.020318236
000010 5f 51 65 3c b9 dc a8 bb c8 f3 4b bc 33 5b b2 3c
       0.013996451 -0.0051532653 -0.012448259 0.021772003
000020 09 86 8e bc 7e bc 9c 3c 57 42 8b bc 53 6d ef ba
       -0.017397897 0.019132849 -0.016999407 -0.0018266834
000030 53 49 59 3d bc 66 ee 3c fc 4c 04 3d 1c b4 34 3c
       0.053048443 0.029101722 0.03229998 0.01102927
000040 bb 9a 35 bc 39 09 59 3d ba af 99 3c 63 ad 38 3c
       -0.011084254 0.05298731 0.01876055 0.011271807
000050 cd cd 50 3c 86 01 9a 3c 6a 69 91 3c e7 1d 48 3c
       0.012744379 0.018799555 0.01775046 0.0122141605
000060 79 34 32 3c d9 dc 18 3b be 32 2c 3c 1e 9a c7 3a
       0.010876768 0.0023324995 0.010510145 0.0015228426
000070 5a 2e 4b bd 36 c0 05 bc 97 e2 bf bc b8 e3 bd bc
       -0.04960475 -0.008163502 -0.023423476 -0.023179874
000080 7f 97 2a bd 1e 7a 94 bb 67 ee a5 bc 33 32 c5 bc
       -0.041648384 -0.004531159 -0.02025528 -0.024071788
000090 52 a3 99 3c 97 cb cf ba fc 05 67 bc 06 67 bc bc
       0.018754635 -0.0015853521 -0.014100548 -0.022998344
0000a0 ba f0 59 3d 09 83 ce bc e4 1e 15 3c 32 dd 5e 3b
       0.05320809 -0.025208967 0.009101603 0.0034006354
0000b0 f7 20 09 bd 76 07 b6 3c 7d c4 ed 3c cb 86 34 3d
       -0.033478703 0.022220355 0.029024357 0.04407386
0000c0 ab d6 98 3c 12 c6 f5 bc f5 eb 5b bc b8 f7 61 3c
       0.01865705 -0.030001674 -0.013422956 0.013791971
0000d0 c1 6b 97 ba db fa 65 3c 8f e2 fd 3c 9c 29 01 3d
       -0.0011552499 0.014036859 0.03099182 0.031533822
0000e0 74 93 b7 3c b8 12 8a bc 1c 35 76 3b 12 d2 0f bd
       0.022409178 -0.016854629 0.0037568277 -0.035112448
0000f0 aa 43 bc 3b 35 b0 bc bc 73 31 41 bc 9f 03 04 3c
       0.005745371 -0.02303324 -0.011791575 0.008057504
000100 ca c5 fa bc 9a ed df bb 26 a0 84 bc 66 3d cc bc
       -0.030611891 -0.0068337442 -0.016189646 -0.02493162
000110 a5 fe 95 3c 17 6a 0c bc
       0.0183099 -0.008570216

net.2.weight f4 [70, 70]
000000 fe fc f2 bd 56 25 dc bc 40 a0 64 be 9a cb 62 3b
       -0.11864661 -0.026873272 -0.22326756 0.003460622
000010 14 16 e4 bd 91 40 68 bd fe ff c3 3d 41 0a 2d bd
       -0.111370236 -0.0567022 0.09570311 -0.042246107
000020 71 37 51 3d b1 31 03 be b5 30 c2 3c e2 b6 c8 bd
       0.051078264 -0.12811925 0.023704866 -0.09800507
000030 bb cd b7 bd b4 9e b2 3c 2c e0 e8 bd 58 a8 7c be
       -0.08974787 0.021804191 -0.113708824 -0.24673593
000040 e1 ea 7b 3d cc c7 39 be 39 87 7a bd bc c2 8a be
       0.061503295 -0.18142623 -0.061164115 -0.27101696
000050 c6 01 f0 3d ef 69 3a bd 6a 37 01 3b d5 16 b9 3c
       0.11719088 -0.045511182 0.0019716867 0.022593895
000060 e8 a1 10 be 64 9c 13 bd 17 a4 49 bd c7 27 c1 3c
       -0.14124262 -0.036037818 -0.049228754 0.023578538
000070 2b 5a 5c bd 39 e5 99 bd ae 76 30 3c 01 db 3c 3d
       -0.05379693 -0.07514424 0.010770483 0.046107296
000080 02 4a eb 3d be 0d 8a 3e 34 bc 6a bc 91 28 1f be
       0.11488725 0.2696361 -0.014327098 -0.15542819
000090 5c 98 e7 3d a3 81 47 bd 74 7b 84 3d a9 a5 1d 3e
       0.11308357 -0.048707616 0.06468859 0.15395226
0000a0 25 7f d4 bc 15 f4 d6 3c cc d6 95 bd cb 4e 8a bc
       -0.025939533 0.026239434 -0.0731636 -0.016883275
0000b0 f5 c9 96 bd 06 51 17 bd f7 9d 90 bd 0d d6 3e bc
       -0.07362739 -0.036942504 -0.070613794 -0.011647713
0000c0 68 9c b8 bd fc b3 10 3e 1a f5 e6 3d e1 ed 0f be
       -0.09014207 0.14131159 0.11277218 -0.14055587
0000d0 7a ae b7 bc 9b 93 cd bd 2a f6 9f bd e8 13 7b bd
       -0.022422064 -0.10037919 -0.07810624 -0.06129828
0000e0 06 26 af bd f3 41 63 bd f0 09 f3 bd a2 26 a2 bd
       -0.08552174 -0.055482816 -0.1186713 -0.07917525
0000f0 74 6e 19 3d e2 a9 1e 3c 17 05 25 3c 07 c8 38 3e
       0.037458852 0.009684058 0.010072014 0.18045054
000100 e5 d9 a4 3c fd 22 35 3d 63 12 ae 3d 51 66 62 3d
       0.020123431 0.04422282 0.08499601 0.055273358
000110 73 16 39 3d ee 81 e4 3d 5b 95 01 be f6 e7 0d 3d
       0.045187425 0.111575946 -0.12654631 0.034645043
000120 65 83 da 3d 23 56 0e 3d 83 82 71 bd 4a 04 bd bd
       0.10669593 0.034750115 -0.058962356 -0.09229334
000130 73 c2 d3 bd 15 dc b4 3d 01 d1 54 3c 4c e7 c3 bd
       -0.103398226 0.0883104 0.012989284 -0.09565601
000140 c9 b4 8f 3c 14 a4 09 bd 9b d1 3c bd b7 1e 9d be
       0.01754226 -0.033603743 -0.046098333 -0.30687496
000150 53 fc b8 bd 0c 30 a9 3c 07 bc 07 3d bb 5d 24 3e
       -0.09032502 0.020652793 0.0331383 0.1605138
000160 54 f6 3f be fd a5 9f bd 25 5c d2 3d ad 7e fa bd
       -0.1874631 -0.077953316 0.102714814 -0.12231193
000170 d2 36 07 be 85 ad e9 bd c6 ce 30 be 37 e9 2b 3d
       -0.13204506 -0.11410049 -0.17266378 0.041970458
000180 e2 55 6e 3d 31 36 97 3c 50 25 bf 3c 70 35 96 bd
       0.058187373 0.018458458 0.023333222 -0.07334411
000190 88 de 06 3c 04 fe 45 3e 95 d2 8c be be f2 5b be
       0.0082317665 0.1933518 -0.2750441 -0.21479318
0001a0 84 13 93 3d 48 fe 0c be 96 45 3a 3d c7 18 b5 bd
       0.07181457 -0.13768876 0.04547652 -0.088426165
0001b0 fe 4a 53 3e 91 d8 61 be 0d 30 23 3e d8 94 88 3d
       0.20634076 -0.2205527 0.15936299 0.06669015
0001c0 35 94 cb 3d f1 46 40 3e 6c 4b 59 bd c6 bc 60 3e
       0.099403776 0.18777062 -0.053050444 0.21947011
0001d0 c6 14 90 bc 17 71 58 3e a5 3f 05 bb 53 8c b3 bd
       -0.01758803 0.2113689 -0.0020332125 -0.08766999
0001e0 d2 56 65 be 4d 40 91 39 c7 b1 59 3d 0b 5c ef bc
       -0.223964 0.00027704463 0.053148057 -0.029218694
0001f0 11 8a 91 3e 5b 37 76 3e 0a 22 49 3d 12 3b 70 bd
       0.2842565 0.24044554 0.049104728 -0.058650084
000200 5b 82 37 be 24 0b 6f be 28 1e 19 3e 7f 22 df 3a
       -0.1792082 -0.23344094 0.1495291 0.001702383
000210 dd 83 88 bd 40 3c 00 3e 4c aa 8a bc 7f 3a 99 3d
       -0.06665776 0.12522984 -0.016926907 0.0748186
000220 30 a3 8f bc 89 78 05 3d 79 be 7d 3c f6 80 2f be
       -0.017533869 0.032585654 0.015487307 -0.17139038
000230 a8 56 83 bd 2c 3c 18 3e 21 c5 ae 3c 95 3d c7 bd
       -0.06413013 0.14866704 0.021334233 -0.09728543
000240 d6 9a 4d 3d 3b 86 c7 3d aa 54 91 bd 77 b1 31 be
       0.05019649 0.09742399 -0.070962265 -0.17352854
000250 ac 58 23 3e c6 e3 09 3e 0f f6 c6 bd b6 7f 1d 3d
       0.15951794 0.13465795 -0.09714901 0.038451873
000260 6c 9f bf 3d d2 66 31 be 9f 13 87 3e 62 bb 24 3e
       0.09356579 -0.17324379 0.26382157 0.16087106
000270 6b 19 b9 bc 6d d5 34 3e e4 ee 51 bc 6b db 88 bd
       -0.022595128 0.1765954 -0.012813304 -0.06682476
000280 40 5c 15 be 34 fd 02 be 64 67 67 bd 54 0c 42 3e
       -0.14585972 -0.12791902 -0.056495085 0.18950015
000290 f0 50 88 3d b8 6d 92 3d 40 8f 5a 3e 9e 82 ae 3d
       0.066560626 0.071498334 0.21343708 0.08521007
0002a0 be 33 65 3d 80 57 f2 bd 6e 07 d6 3b 6b 1a 1a 3e
       0.05595755 -0.118330956 0.0065316474 0.1504914
0002b0 87 9c 34 bd 57 0a 99 bd 31 4f a3 3d 24 0e 91 bd
       -0.04409459 -0.07472675 0.07974089 -0.07082775
0002c0 b2 14 f8 3d b4 c1 4a bd f4 72 5f 3d aa c6 0e bd
       0.12113322 -0.049501136 0.054552987 -0.03485743
0002d0 52 e5 ad 3c 6d 90 ca bd a5 ff d4 3d c1 68 20 bc
       0.021227513 -0.09890828 0.10400323 -0.0097906
0002e0 08 1e 91 3d 08 f4 00 be 91 24 00 be 53 33 3b be
       0.07085806 -0.1259309 -0.12513949 -0.18281297
0002f0 c8 96 48 be 36 b7 52 3d 26 18 2a be 8d 15 5c 3d
       -0.19588768 0.051444255 -0.16610774 0.05373149
000300 78 02 bb 3c 77 37 f3 3d 79 f0 be 3d c3 ef d1 3d
       0.022828326 0.118758135 0.0932321 0.10250809
000310 91 15 45 be 23 89 c4 3d ab 2c 0a 3e 7e 3a af bd
       -0.19246508 0.09596469 0.13493602 -0.085560784
000320 19 5b 9b bd 47 df 95 3e b1 60 05 3e 7f fb f8 bd
       -0.07585735 0.2927191 0.13025166 -0.12157344
000330 4b ee b9 bd de ea 14 bd 25 3d 89 3e 9b f5 f0 3c
       -0.09078654 -0.0363568 0.26804462 0.029413989
000340 c2 2a 1d be 96 ac ab 3d 3c e8 3d 3e 9c c8 00 3e
       -0.15348342 0.083825275 0.18545622 0.12576526
000350 10 d0 61 bc 75 10 46 bb 9f 92 51 3e 04 38 80 3d
       -0.013782516 -0.0030222211 0.20466088 0.06260684
000360 a4 d7 3d bd 5e ee 22 3e e1 7d 71 bd 08 c9 86 bd
       -0.04634823 0.15911242 -0.058957938 -0.065813124
000370 f3 3a de 3a c4 f7 57 bd d3 e5 fb bc 1e 80 14 3d
       0.0016954824 -0.052726522 -0.030749237 0.036254995
000380 05 87 11 be 74 77 95 3d ae 92 33 bc ab 40 f5 bd
       -0.14211662 0.072981745 -0.010960264 -0.11975225
000390 74 59 02 be 1c 58 84 bd ac 9a a0 bd e7 96 ab 3e
       -0.12729436 -0.06462118 -0.07842001 0.33513567
0003a0 75 c9 8f bd 55 5a b0 bd 94 6f ef bd 96 be 0e be
       -0.07020847 -0.086109795 -0.11691204 -0.1393989
0003b0 d3 60 0a 3c ea bc 50 ba 25 05 55 3d 22 62 bf 3d
       0.008445936 -0.00079627207 0.05200686 0.09344889
0003c0 29 a9 a6 3d 3e 8f f0 3c 64 4b 4d bd 60 2c 2a 3d
       0.081377335 0.029365178 -0.050120726 0.041546226
0003d0 d7 42 05 3b e1 09 9a 3d 13 c2 21 be 72 26 15 be
       0.002033403 0.075214155 -0.1579669 -0.14565447
0003e0 03 08 a3 3d ba 04 5d 3d b9 f9 2a be b8 4b 6d 3d
       0.079605125 0.053959586 -0.16696824 0.05793354
0003f0 e5 75 1f 3c 37 5d 7b 3c 5e 3f 01 3e 7f 54 cd 3d
       0.009732698 0.015342048 0.12621829 0.10025882

net.2.bias f4 [70]
000000 f5 dc 28 bd 84 98 05 3d 4a 93 72 bc cb c0 c3 bc
       -0.041226346 0.032616153 -0.014805624 -0.023895642
000010 9a be 62 39 72 ac 9a bc 5a bb 38 bc 5f dd 73 3c
       0.00021624044 -0.018881056 -0.011275137 0.014884322
000020 f9 b9 1c bc a0 bf 19 3d d2 1b 4f 3d 75 7a fe 3b
       -0.009565824 0.037536263 0.05056364 0.007766063
000030 13 87 ab bc f2 9a 13 3c 68 74 2a bd 4c f0 e5 bc
       -0.020938432 0.00900911 -0.04161492 -0.028068684
000040 9c fc a5 bb a7 f6 60 3b 18 fe 51 3c 54 bf 3b bd
       -0.005065514 0.0034326704 0.012816928 -0.04583676
000050 0a a2 4f bc a6 f3 e9 bb 34 51 29 bc f4 a2 4a 3d
       -0.0126729105 -0.007139641 -0.010334302 0.04947181
000060 22 f9 7b 3c fe 01 9b 3b d5 0e ba 3c 64 79 39 3c
       0.015379222 0.004730462 0.02271215 0.011320446
000070 ab 2f 06 bc f7 90 15 3d 14 1f f5 3b 0c 7a 53 bc
       -0.008190076 0.036515202 0.0074805114 -0.012907516
000080 5c ba 48 bd 0a aa 0a 3d 6e 93 a9 bc 21 08 44 bc
       -0.04900585 0.033853568 -0.020700183 -0.011964829
000090 7d 48 a9 bc 37 b9 c5 bc c3 48 87 3b 0a 51 2b 3d
       -0.020664448 -0.024136169 0.004128547 0.04182533
0000a0 66 69 78 bc b3 e3 77 bc 8a 16 a2 bc 95 7b 2a 3b
       -0.015161848 -0.015129971 -0.019786138 0.0026013602
0000b0 9a 27 b1 bc f4 78 8e 3c ae 2d 0f bd c8 48 44 bc
       -0.021625329 0.01739166 -0.034955673 -0.011980243
0000c0 2d f6 c0 ba 6b 27 84 bc 27 54 96 3c bb 67 de bb
       -0.0014721804 -0.016132077 0.018350674 -0.006787268
0000d0 5a 69 49 3c 8a 2c 92 3c 4b 9b e8 3b 45 f4 6b 3b
       0.012293184 0.017843504 0.0070985905 0.003600375
0000e0 ec 2a c0 bb ee 56 b6 bb 2d 5f a2 3c 4a 7e 3f bd
       -0.0058644917 -0.005564562 0.019820774 -0.046751298
0000f0 f4 4a ef bc 98 b6 5e bc 4b 6a 94 3a 74 c7 6a 3d
       -0.029210545 -0.013593338 0.0011323182 0.05731912
000100 fa 41 12 3b a3 d5 9d 3d 87 65 67 bc db 87 ba bb
       0.0022317157 0.077067636 -0.014123327 -0.0056924648
000110 ab 4a 52 bb d8 79 c6 3c
       -0.0032087963 0.024228022

net.4.weight f4 [70, 70]
000000 fa 89 d0 3d 33 7d 30 be c2 8d 96 3d 37 d2 15 3e
       0.10182567 -0.1723526 0.07351257 0.14630972
000010 95 b7 1b 3d da c2 ac 3e 46 31 87 3d 6f 1b 6e 3e
       0.038016874 0.3374241 0.06601195 0.23252653
000020 84 af 32 3e 49 5a 9c 3b ce 6d c2 3c d5 ed 3b bd
       0.17449766 0.004771505 0.023734 -0.04588111
000030 9f 1b a2 3e 32 d5 b4 3d d9 c4 e9 3a 1f 99 45 bd
       0.31661698 0.08829726 0.0017835154 -0.04824173
000040 51 62 36 bd a7 b6 a5 3d a6 9c 65 be 33 fb 6f bd
       -0.044527356 0.08091479 -0.22423038 -0.05858917
000050 74 56 14 3e 05 0a 03 3e 89 ab 03 be 37 99 de 3d
       0.14486104 0.12796791 -0.12858404 0.10869067
000060 d0 b7 10 3d b6 a4 b0 3d a8 50 3c 3e a7 d8 4d 3e
       0.035331547 0.08625166 0.18390143 0.20102178
000070 cc 15 36 be 58 24 20 be c0 ba ad 3b 5c 6c 76 3b
       -0.17781752 -0.15638864 0.0053018034 0.0037601208
000080 53 07 38 3e 26 d8 2a 3e 79 78 80 3d 16 99 be 3c
       0.17971544 0.16684017 0.06272978 0.023266356
000090 06 6e 47 bd ac 84 89 3c 4f b9 f9 3d ff 71 48 3e
       -0.04868891 0.016786896 0.12193548 0.19574736
0000a0 c2 3c 2f 3d cf 3c c5 3d ed 8a 4a 3e b0 17 57 3e
       0.042782553 0.09630739 0.19779558 0.2100513
0000b0 22 ba 19 be 6e 16 08 bd 7b 55 1b be d5 15 ef bd
       -0.1501241 -0.033224516 -0.15169327 -0.11674086
0000c0 24 70 92 bd 23 02 fb bd 65 39 17 bd f2 5d 5f bd
       -0.071502954 -0.12256267 -0.03691997 -0.054532953
0000d0 7c ac 07 3c 32 9c 2f bd b2 1b ad 3d 93 ff 56 bd
       0.00828087 -0.04287357 0.08452548 -0.05248983
0000e0 dc b4 e7 3c 6d 58 0d be 36 ca 92 3d cc 35 ef 3b
       0.028284483 -0.13803263 0.07167475 0.0073001143
0000f0 20 fc 9d 3d f2 8f 4d 3d 0c dc 3e be 59 f1 d6 bc
       0.07714105 0.050186105 -0.18638629 -0.02623813
000100 21 9e ae bc 16 12 84 3d e2 7a 47 3c c3 22 53 3d
       -0.021315636 0.06448762 0.012175294 0.051546823
000110 b9 d3 c8 3d 2a 0d cf bd 48 d7 8e bc 41 b2 3f bc
       0.09806008 -0.10109933 -0.017436638 -0.011700214
000120 49 c0 a7 3d b7 94 3e 3d e0 1a de bd b0 33 f7 3d
       0.08190972 0.046528544 -0.1084497 0.120704055
000130 bf 0a 09 be 1f 2e d2 3d 9a f7 3f 3e d6 7a 00 be
       -0.13383006 0.10262703 0.18746796 -0.12546858
000140 a7 4a b2 3d ba ed 4b 3d 9c 25 e9 bd 18 43 61 3d
       0.08705645 0.04978726 -0.113841265 0.054995626
000150 d6 a0 05 bd 45 35 f1 bd 5f 0d e3 3c 25 66 01 3e
       -0.03262409 -0.117777385 0.027716337 0.12636621
000160 3c fc 2d 3e 08 0e dd bd 23 c9 ad bd a4 33 c8 bd
       0.16990751 -0.10793692 -0.084856294 -0.09775475
000170 b6 3c c3 3d 69 52 c2 3b ec 0c 94 bd 36 4e 67 bd
       0.09533064 0.005930234 -0.07229027 -0.056471072
000180 84 78 d6 3d 7a ef 8a 3d e2 3b 70 3b a6 d9 ce 3d
       0.10472205 0.06783958 0.0036656787 0.10100107
000190 45 dd 7f be e3 79 13 3e 05 df 87 3d 32 b0 96 3c
       -0.24986751 0.14401965 0.066343345 0.018394563
0001a0 07 b4 9f bd b4 58 c5 3c 5c b3 3b be e9 be 8c 3d
       -0.07798009 0.024090149 -0.18330139 0.06872351
0001b0 30 81 3d be be 2d 59 be 5e 70 06 bc 27 e3 66 bd
       -0.18506312 -0.21208856 -0.008205501 -0.056368973
0001c0 07 5b 18 be cf ec 70 3d 39 2e f7 3d 5c 0f cb 3d
       -0.14878474 0.05881959 0.12069363 0.09915039
0001d0 e8 32 16 be a8 7b 9a 3c 8d 81 29 3c 4c 46 aa 3d
       -0.14667857 0.018857792 0.010345829 0.08314189
0001e0 4e 1e 9c 3c 4d f7 44 bd b9 bf c2 bd 89 11 73 bd
       0.01905742 -0.048087407 -0.095092244 -0.059342895
0001f0 8f 0e f9 3d c4 26 5c bd 4c 32 3b 3c 0a 04 22 be
       0.1216098 -0.053747907 0.011425566 -0.15821853
000200 58 2e 06 bc 93 ac c2 3d 96 49 58 bd 08 95 d5 3a
       -0.00818976 0.09505572 -0.052804552 0.0016295025
000210 9b 6c 1c be 7c 3c d7 bd dc c0 05 bd ff 21 e1 bd
       -0.15275805 -0.10509583 -0.03265463 -0.10992812
000220 2d 2e 0a be 4e 45 0c 3d a6 76 9e bd 50 5d e6 bd
       -0.13494177 0.03424578 -0.07737474 -0.11248267
000230 3b 3f 67 bd fc 17 05 3e e2 a2 88 bd 9d 08 1a bd
       -0.056456786 0.1299743 -0.066716924 -0.03760587
000240 25 d5 32 3d d3 ba d6 bd 5e da d8 bd f7 b8 a9 3b
       0.0436603 -0.10484853 -0.10588525 0.00517952
000250 8e d6 0b bd 39 98 f4 3d 29 5b 65 bd c1 63 a8 3d
       -0.034140162 0.11943097 -0.05599514 0.082221515
000260 ea e3 3a 3e b4 51 42 be 6e 25 53 3d 1d 2f 89 bd
       0.18251005 -0.1897648 0.051549368 -0.06698439
000270 46 53 bf bd 37 6c 5d 3e 97 46 69 bc 16 92 be bc
       -0.09342055 0.21623312 -0.014238021 -0.023263019
000280 3d 17 2f 3e b8 d9 1e 3e d7 11 31 3e 49 e3 70 3d
       0.17098708 0.1551274 0.17291962 0.058810506
000290 d4 a8 b8 3d 33 0c 7a 3e d5 79 c5 3d 02 da 1b be
       0.090165764 0.24418716 0.09642378 -0.15219882
0002a0 c2 9f 8f 3e 3a 7e f6 3d 0a d0 30 3d c8 0c e5 bc
       0.28051573 0.120357946 0.04316715 -0.027960196
0002b0 4d 99 58 bd e4 0d fd bd 74 4c f3 3d bd d9 31 3d
       -0.052880574 -0.12356165 0.11879817 0.043420542
0002c0 94 5b d7 3c e6 4d 80 3e 5a 18 36 bd 28 1b 8c bb
       0.026288785 0.25059432 -0.044456817 -0.004275698
0002d0 5b 76 64 3e 2e 08 63 be 39 f4 0a 3e a9 9d a5 bb
       0.22310774 -0.22171089 0.13569726 -0.005054195
0002e0 fc 3d 04 3c df a6 a0 3c 15 6a 5c bd 19 47 c4 3d
       0.008071419 0.01961082 -0.053812105 0.09583873
0002f0 ee 60 3d bd e1 07 3b 3e 63 46 f9 3c 58 3c 9a bc
       -0.046235017 0.18264724 0.03042907 -0.018827602
000300 e3 05 0f 3d 92 a3 e1 bc 5f 50 44 be b1 33 b7 3d
       0.034917723 -0.027543817 -0.19171284 0.08945406
000310 ab eb be 3d a8 a1 03 be bd d7 82 bd 78 8f bb 3d
       0.09322294 -0.12854636 -0.06388805 0.09158224
000320 28 b7 16 be 54 43 5c 3d f3 cf fb 3c 20 32 2e bd
       -0.14718306 0.053775147 0.030738806 -0.04252827
000330 16 4a 92 be 12 a5 82 bd bf 59 d6 bc 55 cd a0 be
       -0.28572148 -0.06379141 -0.026165841 -0.31406656
000340 28 9c 34 3e 21 26 26 be 31 02 19 3e b2 86 4f 3c
       0.17637694 -0.16225483 0.14942242 0.012666391
000350 7c ed 15 be 0d 3a b8 bd 5f a2 bb bd ad 73 08 3d
       -0.14641374 -0.08995447 -0.09161829 0.033313442
000360 d6 12 51 3e 1a d6 f8 3d 22 e9 3e 3e a0 25 21 3e
       0.20417342 0.12150212 0.1864362 0.15737009
000370 24 59 30 3e 6b 20 08 bd 71 ed 76 bd c1 2a 9d 3c
       0.17221504 -0.03323404 -0.060285036 0.019185426
000380 af c5 74 be d3 16 96 bd 42 65 aa 3e 0c fc eb bc
       -0.23903535 -0.07328572 0.3328038 -0.028806709
000390 61 43 3e bd ab 7c 8b bd 80 cf 34 be 71 90 c3 3d
       -0.046450976 -0.06810888 -0.1765728 0.095490344
0003a0 72 ab cb bc 01 13 14 bd b3 f9 51 3d fa ae a8 bd
       -0.024862025 -0.036150936 0.051263522 -0.08236499
0003b0 42 77 16 3e ba 91 e6 3d c7 da 57 be 51 54 0c 3e
       0.14693931 0.11258264 -0.2107955 0.13704039
0003c0 4e 4e 04 3e d9 83 79 bd 88 00 46 bd a5 dc 50 3e
       0.12920496 -0.060916755 -0.04834035 0.20396669
0003d0 cd 5b 56 bc 5c 67 67 bd 83 7c d0 bd 00 e0 ec bc
       -0.01308341 -0.056495056 -0.10179999 -0.028915405
0003e0 26 b0 ec bd c6 c0 47 3d 7b 4b 12 3e b0 07 0b bd
       -0.11557035 0.048767827 0.14286606 -0.03394288
0003f0 f0 ce 47 3d 87 a9 0c 3e fe bf 11 bc 21 b1 5c 3e
       0.048781335 0.13736545 -0.008895872 0.21551944

net.4.bias f4 [70]
000000 06 f2 5d bb 1e 76 15 3c 6c 53 25 bc c9 74 c1 3c
       -0.003386618 0.0091224 -0.01009069 0.023615258
000010 de cf 91 3b 26 fb 92 3c 05 88 2b bb 1f c0 5a bc
       0.0044498285 0.017942023 -0.0026173603 -0.013351469
000020 58 d1 20 3d cd 7a 96 bc 77 ed 0b bc 51 08 23 bc
       0.039262146 -0.018369103 -0.008540503 -0.009950713
000030 57 e2 ca 3b f6 41 86 bc 73 aa c2 ba 5b 22 1f bd
       0.0061915326 -0.016388875 -0.0014851823 -0.038851123
000040 4d be f0 bc e4 92 37 3d 86 82 11 bc 7f 2c 18 bc
       -0.029387617 0.04481782 -0.008881217 -0.009287952
000050 a7 3a 3a bc de 96 b6 3a 5d 05 66 3c 80 b5 aa 3c
       -0.011366523 0.001393046 0.014039365 0.0208385
000060 be b8 45 3b f5 4d 2e bd 9a c9 a5 bc b3 21 90 bc
       0.003016993 -0.042554814 -0.020237733 -0.017594194
000070 7a 79 9b bc 3a 8e 38 3c bb ea db bc 5c 11 8b bc
       -0.018978823 0.011264378 -0.026845327 -0.016976051
000080 c8 8e 5c bc e4 06 79 bc 48 15 10 bc c0 91 aa bc
       -0.013461776 -0.015199397 -0.008794136 -0.020821452
000090 90 8f 2b bb 45 08 ea 3c 8f d0 bb 3c ac c9 84 3c
       -0.00261781 0.028568396 0.022926597 0.016209446
0000a0 e7 ef 95 bb 51 eb 5b 3c cd 89 73 3c c0 78 15 ba
       -0.0045757177 0.013422803 0.014864397 -0.0005701892
0000b0 1e 36 99 3b d8 5e 85 bb 44 88 5d ba 1a 03 84 3b
       0.0046756407 -0.004070144 -0.0008450786 0.00402869
0000c0 55 26 6b bc f7 95 c3 bc 3a 57 5d bc 0f 9e ab bc
       -0.014352401 -0.02387522 -0.013509566 -0.020949392
0000d0 7d c6 92 3c fb f9 be 3b 18 6c d4 3c 6e 1a 44 3c
       0.017916912 0.00582814 0.02593045 0.011969192
0000e0 24 69 a8 3c 20 e1 d5 3a 3d 17 82 3c 8c 1d b0 bc
       0.020557947 0.0016317703 0.015880222 -0.021498464
0000f0 02 66 7e 3c 77 66 07 bd fe 46 39 3c 77 57 2f 3c
       0.01552725 -0.033056702 0.01130843 0.010702006
000100 bd f7 a1 3b 4f 52 ad bc 40 76 81 3b e4 37 9b bc
       0.004942863 -0.021157412 0.003950864 -0.01894755
000110 df 13 76 bb 6b df da bb
       -0.0037548465 -0.0066794655

net.6.weight f4 [70, 70]
000000 b3 7b 05 3d ba 9a 09 be 86 0a 85 3e 57 e3 d3 bd
       0.032588672 -0.1343793 0.2598459 -0.10346096
000010 78 25 d5 bd 4d 8d b8 3c 6e 57 f8 bd e0 1b 99 bb
       -0.10407537 0.022528315 -0.12126051 -0.0046725124
000020 c3 b0 65 bd e5 9c 52 bd 70 60 35 bd 6e 35 2c bd
       -0.056076776 -0.051419158 -0.044281423 -0.042043142
000030 50 7c 73 bd aa ae 9b 3d ac 2f 27 be df 2d f6 3d
       -0.059444726 0.07601674 -0.16326779 0.12020468
000040 4a 71 9d bd d6 7d 09 3c 41 b9 33 be a5 7d 5b be
       -0.07687624 0.008391818 -0.17551138 -0.21434648
000050 a5 ab 65 bc 9c f6 40 be 7d 2e 76 3d f7 be 19 bd
       -0.014017974 -0.18844074 0.06010293 -0.037535634
000060 0a bd 97 3d 5f 41 3f bd 5c d9 44 bc dd fe e6 bc
       0.07409103 -0.046693202 -0.012014713 -0.0281977
000070 45 a2 3a 3e 05 8c a6 3d 02 34 cb 3d 88 c1 54 bd
       0.18225963 0.08132175 0.09922029 -0.05194238
000080 ad 08 ec bd e1 3e 63 bd 6a 9b 53 3e 96 f0 9e 3d
       -0.11525092 -0.055479888 0.20664755 0.07760732
000090 13 3d 3a bd 27 d7 9c 3e ee 17 10 3d a7 cc 6a 3e
       -0.0454684 0.30632898 0.03517907 0.22929631
0000a0 b0 f8 af bd 09 a8 f9 3b 4a 86 5f bd 63 20 88 3d
       -0.08592355 0.0076189083 -0.054571427 0.06646802
0000b0 fa c5 6d 3d 8d 36 0a 3e 70 22 f8 3d 93 5a 6d bd
       0.058050133 0.13497372 0.121159434 -0.057947706
0000c0 d4 9e bb 3d db 47 0f 3e 09 d6 c5 bd cd ba 10 3e
       0.091611534 0.13992254 -0.096599646 0.14133759
0000d0 ae c9 9c 3d 0f 40 11 3e dd 0f e1 3b fa 8e 08 be
       0.07655655 0.14184593 0.006868346 -0.13335791
0000e0 da f4 be 3c ff 33 d2 bd 0f 1f 18 3d 7c 5b a4 be
       0.023310114 -0.10263824 0.037138995 -0.32101047
0000f0 1e 64 43 be 74 c5 03 be c9 9e 6f bc 38 99 fa 3b
       -0.1908116 -0.12868291 -0.01462526 0.0076476596
000100 39 22 ef bc 84 d1 56 3e 59 d0 40 bd 30 85 fe 3d
       -0.029191123 0.20978361 -0.047073696 0.12427747
000110 04 e6 29 3e 70 38 8a bd 53 de 9b bc 48 15 88 bc
       0.1659165 -0.06749046 -0.01902691 -0.01661171
000120 6b 76 61 be 24 9a dd bd 03 7b a2 be d1 e5 a0 bd
       -0.22017829 -0.108204156 -0.31734475 -0.07856334
000130 3d 5b a6 bd f2 85 e6 3d 60 3e bc 3d 47 c4 89 3c
       -0.08122871 0.11256017 0.091915846 0.016817225
000140 80 b1 5d 3e c3 4b c5 bd 21 58 d0 3d cb a6 e8 3d
       0.21649742 -0.09633591 0.10173059 0.11359938
000150 77 bc 94 bb 16 3b e9 bd 09 a1 bf bd 3e 1f a0 bc
       -0.0045390683 -0.11388223 -0.09356887 -0.019546147
000160 a4 ff 32 bd a5 79 12 be f9 44 2d be 6e 5c 62 be
       -0.04370083 -0.14304216 -0.16920842 -0.22105572
000170 27 43 03 3e 12 b8 b5 3d 5c 8a 26 be 45 39 c3 3d
       0.12818585 0.08872999 -0.16263717 0.09532408
000180 0a 04 38 3e bd ba a0 bd a0 83 59 bd c7 82 bb bb
       0.17970291 -0.078481175 -0.053104043 -0.005722377
000190 0c af 95 3d ec 3d 93 bd 3a 96 fe 3d 0b eb 2b bc
       0.07308778 -0.07189545 0.12430997 -0.01049305
0001a0 d8 b4 33 3e 12 cd 76 be cc 07 a4 3d cf 3d 7a bd
       0.17549455 -0.24101666 0.080093 -0.0610941
0001b0 d6 36 d5 bc f0 d9 2f be 54 a4 20 3e a5 75 3f bd
       -0.026027124 -0.1717298 0.15687686 -0.046743054
0001c0 dc e3 b4 be a9 34 e7 3c b5 bf ee 3c 13 d3 e7 3d
       -0.35330093 0.028223353 0.029144147 0.11319556
0001d0 2e 4c f7 bd e9 d1 3f 3e e0 84 06 bd 31 8a 36 bd
       -0.12075077 0.18732418 -0.032841563 -0.044565383
0001e0 a5 a2 38 bd 6a 6c b3 bd 12 70 36 3e 0c 49 fe bd
       -0.045076985 -0.08760913 0.17816189 -0.12416276
0001f0 05 07 f4 bd 08 88 82 bd c2 56 50 bc fd 06 8a be
       -0.11915401 -0.06373602 -0.012715997 -0.26958457
000200 86 16 bf bd 9a fe 94 bd cd 66 40 be 16 3c 89 bb
       -0.09330468 -0.07275124 -0.18789215 -0.004188071
000210 df 29 19 bd 83 ce 22 3e 4a f8 2a be a7 12 48 bd
       -0.037393447 0.1589909 -0.16696277 -0.048845913
000220 77 04 79 be ae c7 7d 3e 0b e7 24 3e 2e 7e 2a 3b
       -0.2431811 0.24783203 0.16103761 0.002601515
000230 30 84 1e 3e 54 83 ba 39 c4 69 c1 bc 8f d9 58 3d
       0.15480113 0.00035574532 -0.023610003 0.052941855
000240 72 40 db bd be 85 bd bd bc b3 17 be 35 6e 00 3e
       -0.10705651 -0.09254025 -0.14814657 0.1254204
000250 80 37 13 bc 76 35 e0 3e c1 e8 16 bd e1 b2 3a bd
       -0.0089854 0.43790787 -0.036843065 -0.04558075
000260 ad 89 2f be 35 7e 02 bd a3 89 b4 bc 2d 74 84 3b
       -0.17142363 -0.03185864 -0.022038287 0.0040421695
000270 8d 36 63 3d 24 e3 4e bd a8 7c 42 3d ed 92 d9 bc
       0.055471946 -0.050509587 0.047482163 -0.026559317
000280 f9 75 a4 bd d7 f9 05 3d bc cc f4 3d e0 f9 a0 bd
       -0.08030314 0.03270897 0.119531125 -0.0786016
000290 55 e3 4b 3e d2 78 9d be 3b 00 f7 bd e6 51 44 3d
       0.19910939 -0.3075624 -0.12060591 0.047929667
0002a0 a4 3f 1c bd d1 2c 44 be 4f d0 46 3e fe 11 b5 bc
       -0.03814663 -0.19157721 0.19415401 -0.022103306
0002b0 e3 d0 e7 3b 70 93 41 bd 84 66 50 3e 0f 39 bb bc
       0.007074462 -0.047259748 0.20351607 -0.022854356
0002c0 65 d5 81 be c9 6e 28 be 73 11 b3 3a 7f e8 5b be
       -0.2535812 -0.16448511 0.0013661816 -0.21475409
0002d0 1f 16 ae 3c 2b b7 a5 bd a2 f6 0b 3d 93 2c 1a 3c
       0.021250783 -0.08091577 0.034170754 0.009410041
0002e0 d1 92 2b 3e 67 d7 36 be 70 6a 7e bd ef a2 fd 3e
       0.16755225 -0.17855607 -0.062113225 0.4953837
0002f0 f4 99 2d 3e 00 50 28 3e 57 29 48 be 2e da a9 bc
       0.1695326 0.16436768 -0.1954702 -0.020733919
000300 66 9b 59 bd 7b 82 e1 bc 1d 2b 3e bd 3d d9 6b be
       -0.053126715 -0.027528038 -0.046427835 -0.23032089
000310 5c d7 1c 3e 5d 81 f8 bd 19 7e 85 3d 04 8f 0f bd
       0.15316528 -0.12134049 0.06518192 -0.0350485
000320 1b 8f 7d 3c 0d d0 8c 3c e5 a0 8a 3d 63 53 1b bc
       0.0154760135 0.01718905 0.067689694 -0.00948033
000330 22 11 9d 3e f1 f6 07 3e b3 51 8d 3e 1e de 9a 3d
       0.30677134 0.13277794 0.27601394 0.07561897
000340 3d 19 bc bd 14 03 26 bd c7 ad 0a 3e 0d 5e 77 3c
       -0.09184501 -0.04053028 0.13542853 0.015098107
000350 70 31 48 3e be 53 cf bc c2 0b fe 3d 0e 42 6a 3e
       0.19550109 -0.025308486 0.124045864 0.2287676
000360 56 b8 04 3e 53 74 ab 3c e0 86 aa bc e2 1a 0b 3e
       0.12960944 0.020929491 -0.020816267 0.13584474
000370 ec b6 e1 bd 85 7a 4c 3d 77 da c4 bd d8 b8 86 be
       -0.11021218 0.04992153 -0.09611981 -0.263129
000380 d4 2a 8a 3c a1 a3 3c be d5 b4 8a 3d fa b3 d4 3d
       0.016866125 -0.18421794 0.06772772 0.1038589
000390 6d a7 47 bd a0 fe a1 3d 58 ce 48 bc 2a a5 83 3e
       -0.048743654 0.07909894 -0.012256227 0.25711948
0003a0 55 36 a8 bc db 00 4b 3e 4d 2f b6 bd f3 ce 88 3b
       -0.02053372 0.19824545 -0.08895741 0.004175061
0003b0 48 b5 1d be dd 6b 9e 3d bb 80 10 bd bc 61 d3 3d
       -0.15401185 0.07735417 -0.035279017 0.10321376
0003c0 f8 96 0a 3e a4 6b a8 bc 8c 07 6e bd d2 a9 df 3d
       0.13534153 -0.02055914 -0.058112666 0.109210625
0003d0 f7 94 45 bd 59 22 8f bd 3b aa 2a bc 74 e6 90 bc
       -0.048237767 -0.06988973 -0.010416563 -0.017688014
0003e0 28 0a 78 bd 10 f2 b3 bd 2c f2 cb bd 83 84 3a 3e
       -0.06055656 -0.08786404 -0.099583 0.18214612
0003f0 2a cb 8a 3e 3f d7 41 3e e5 5a e9 bd a8 31 d8 bd
       0.27108127 0.18929766 -0.1139429 -0.10556346

net.6.bias f4 [70]
000000 0c b5 da 3b 9c d8 93 bc a5 ac d3 bb c5 bd f5 3b
       0.0066744145 -0.018047623 -0.00645979 0.007499429
000010 ed a3 50 3c 51 cc b1 ba 85 da 13 bc e5 fe a0 3b
       0.012734395 -0.0013564919 -0.009024267 0.0049131983
000020 16 03 c9 bb 17 96 b0 3b d4 28 a5 bb 0a 5d 1d bc
       -0.006134401 0.005388986 -0.0050402675 -0.009604702
000030 cf ce f9 bc 22 7c 95 3c a3 7d bb 3a 03 1a 66 3c
       -0.030494122 0.018247668 0.001430441 0.014044288
000040 cf c8 86 bb bc 26 7c bc c6 12 2f 3c b2 62 70 3b
       -0.0041132937 -0.015390094 0.010685628 0.003667992
000050 4d d5 22 b8 74 63 a3 3b 0c 93 ac 3c 3e c8 63 bc
       -3.882246e-05 0.004986221 0.021066211 -0.013902722
000060 1b fa 73 3d 1e ec f3 bb 67 76 bd bc 64 7d 40 3a
       0.05956469 -0.007443919 -0.023127748 0.00073429034
000070 7e 22 cd bb 5a 46 78 bc 5f 0c cf bc 16 38 9b 3c
       -0.0062602153 -0.015153492 -0.025274454 0.018947642
000080 06 6e 0b 3c 94 ed e8 bb e2 ca 4a bc 7f e0 2c 3c
       0.008510118 -0.0071083996 -0.012377473 0.010551571
000090 c0 d5 84 3b 39 0b e3 bb 65 e5 0d 3d ff 29 23 bc
       0.0040538013 -0.006928828 0.034642596 -0.009958743
0000a0 df 47 30 3b d3 04 09 3c 13 65 80 bc 8e 4d 29 3c
       0.0026898307 0.008362967 -0.015673196 0.010333432
0000b0 41 0c c0 3c e2 80 fb bb 03 36 92 ba f9 39 e8 3b
       0.023443343 -0.007675276 -0.0011155013 0.007086989
0000c0 69 08 cc bc 26 72 66 3b 41 45 bb 3b e1 d9 4a 3c
       -0.024906354 0.0035163253 0.005715043 0.012381048
0000d0 12 ba 6c bb f2 a1 06 ba 14 ff eb bc 05 d2 b2 bc
       -0.0036121649 -0.0005135826 -0.028808154 -0.02182866
0000e0 36 d4 3e bc da 3a 5b 3c 31 91 a3 bb 37 24 bc 3c
       -0.011647275 0.0133807305 -0.0049916734 0.022966487
0000f0 73 20 03 bb 7e c5 37 bc 60 e8 6b 3c f6 25 3a 3c
       -0.0020008355 -0.011216519 0.014398664 0.01136159
000100 27 8a 97 bc 13 f3 80 bb 10 78 08 3c b0 07 75 bb
       -0.018498493 -0.0039352267 0.008329406 -0.0037388615
000110 9e c8 d1 bc 72 f2 07 3d
       -0.025608357 0.0331902

net.8.weight f4 [70, 70]
000000 12 b6 76 3d 51 65 c4 bd 65 54 3f 3d 29 45 40 be
       0.06023223 -0.09589637 0.046711344 -0.18776383
000010 7b 46 0d be 34 a7 dc 3d 6e c3 51 be 6e d0 47 3c
       -0.13796417 0.10774079 -0.20484707 0.01219569
000020 e4 f5 92 bd 9f 5b dd 3c 09 ba 22 be c1 58 db 3d
       -0.07175806 0.027021227 -0.1589128 0.10710288
000030 a4 72 87 3d 73 cc 9b 3d 8b 2b cd 3d 17 1d 93 bc
       0.06613663 0.07607355 0.10018071 -0.017958207
000040 a7 9b 36 3d 92 64 ce 3c f6 59 b1 bd e9 88 45 3e
       0.044582035 0.02519444 -0.08659737 0.19290508
000050 c1 4d 0a be d0 99 12 be 7d b7 f1 3c cb 04 98 3d
       -0.13506223 -0.14316487 0.02950644 0.07422789
000060 01 82 e5 bd 18 b3 52 3e 1b 88 53 ba 8f 7a 16 bd
       -0.11206437 0.20576131 -0.00080692925 -0.036737975
000070 2b ef 21 3e 78 7d c0 3d 8e 21 53 3d 63 5c 03 be
       0.15813892 0.09398931 0.051545672 -0.12828211
000080 42 c4 92 be 26 23 6f be 20 1c 12 be 5a 37 08 3e
       -0.28665358 -0.23353252 -0.14268541 0.13302365
000090 53 33 28 3d 78 3b 22 3e 56 04 03 3d c4 14 cc 3c
       0.04106457 0.15842998 0.031986557 0.024912246
0000a0 31 e5 ac bd 34 b6 16 3b 9b af 44 be 0c e7 88 bd
       -0.08442152 0.0022996785 -0.19207613 -0.06684694
0000b0 0f 9c 81 bd ac a6 21 bd ad 35 ac bd c9 f7 fc bd
       -0.06328594 -0.03946559 -0.08408675 -0.12351949
0000c0 53 35 56 3e 86 53 9c 3d 25 13 59 bd 42 40 18 3d
       0.20918779 0.07633118 -0.052996773 0.037170656
0000d0 c8 ea 57 bd d0 d4 27 3d 41 87 d1 bd 17 d1 45 3e
       -0.05271414 0.04097444 -0.10230876 0.19318043
0000e0 cd a1 1a 3d e0 31 39 be 96 f3 f0 3d b9 45 88 3e
       0.03775196 -0.18085432 0.1176521 0.26615694
0000f0 8f 0b 22 3d af b9 90 3d 0c c7 d8 3d 34 ab 8f bd
       0.039561804 0.07066666 0.1058484 -0.07015076
000100 ee 90 93 3c 69 7a f1 3d 40 6c c6 3d c6 46 28 bd
       0.018013444 0.11790926 0.09688616 -0.04108312
000110 cd 9c ba bd 39 5f fd bb 4b 07 9a bc 0f af 4c 3c
       -0.091119386 -0.0077322987 -0.018802306 0.012492909
000120 e3 4d 87 bc 7b 0c 28 be 66 fa f4 3d 29 cd 34 3e
       -0.016516631 -0.16411011 0.11961822 0.17656387
000130 26 c6 78 3e 67 92 6e 3e 2f 31 39 3d 7d 71 9a 3e
       0.24294338 0.23298036 0.04521292 0.3016471
000140 7a af 24 3d 8f 4d c1 3c 8a cb 42 be e4 11 90 be
       0.04020641 0.023596553 -0.19022956 -0.2813865
000150 44 90 06 3e 8c 28 fd 3c 89 f8 47 bd fc 07 61 3d
       0.1314097 0.030903123 -0.048821006 0.054939255
000160 eb 12 5f be 0b c8 bf bd 06 21 01 be 13 b3 da 3d
       -0.2178456 -0.09364327 -0.12610254 0.10678687
000170 03 84 8b bd 54 37 74 3e 57 b1 93 3c e0 a1 ab 3d
       -0.068122886 0.23849231 0.018028898 0.083804846
000180 82 00 47 be 0c bd e9 3d 23 0b ce 3c 9c e0 16 be
       -0.19433787 0.11413011 0.025151795 -0.14734119
000190 c4 45 d8 ba 19 42 a6 3d 20 af 3b be 96 cf f5 bd
       -0.0016500284 0.08118076 -0.18328524 -0.120024845
0001a0 ab c0 62 be 9b 37 1c 3e 92 bb 97 bd 47 c5 dd bd
       -0.2214381 0.15255587 -0.07408823 -0.10828643
0001b0 b7 d4 f1 bd 0e 9e 99 bd 7f ab 86 3e 52 e3 f6 3d
       -0.1180815 -0.0750085 0.26302716 0.12055077
0001c0 39 ec 06 be 90 48 a7 bd c2 d6 c8 3d 6e 28 76 be
       -0.1317605 -0.08168137 0.09806587 -0.2403886
0001d0 4e 5c a3 3d 2f a1 a9 3c 5c b8 05 3e d0 cc c0 bd
       0.0797659 0.020706741 0.13058609 -0.09414065
0001e0 f7 68 90 bd da d9 17 3e c7 a0 60 be 10 a3 a1 bd
       -0.070512705 0.14829198 -0.21936332 -0.0789243
0001f0 e1 b8 c8 bd 74 9e d2 3c 6d 37 1f be a6 f3 f1 bd
       -0.09800888 0.025710322 -0.15548487 -0.118140504
000200 0f 7b e7 3d 73 d5 9b 3d db a3 94 3c d4 9c b9 3d
       0.113027684 0.076090716 0.018144539 0.09063116
000210 3c 5f 43 3e 66 fd 3d 3e b0 5c 39 3e 1b 73 dd bd
       0.19079298 0.18553695 0.18101764 -0.1081297
000220 c5 53 a7 3d 80 f7 41 bd 87 8c 9b be 2e c9 57 be
       0.08170275 -0.047355175 -0.3038065 -0.21072838
000230 47 57 98 3d c9 51 e1 3d b2 7f 02 3d 8c de 6d 3d
       0.07438522 0.110019274 0.03186006 0.058073565
000240 6d 00 f5 3d 5c b8 05 bd 4c 3f b2 3c 00 0c 3b 3e
       0.11962972 -0.032646522 0.021758698 0.18266296
000250 93 4f 93 be d9 40 af 3d c8 5d 6f 3c bb 87 fa bc
       -0.28771648 0.085572906 0.014609762 -0.0305823
000260 1a 33 b4 bd 53 bf 0f 3e 49 da 8e bd 7a c5 12 3d
       -0.08798809 0.14037828 -0.06975228 0.03583286
000270 43 50 9f 3d 3f 9f 1a 3c ec 1e 20 be 63 fc a6 bd
       0.077789806 0.009437381 -0.15636796 -0.08153608
000280 e7 bb d7 bd 52 59 51 bd 1c 2e a9 bd be 69 69 3d
       -0.105338864 -0.051110573 -0.08260748 0.05698561
000290 18 8f 32 3e 4e 22 3c 3e a4 27 98 3d 1c a6 f1 bd
       0.17437398 0.18372461 0.07429436 -0.11799261
0002a0 1c 19 38 bd 38 98 43 3d f6 27 97 3c 46 75 05 3e
       -0.04494582 0.04775259 0.018451672 0.13033018
0002b0 c5 38 c8 bd d7 5f 40 bb 5c 5f 24 be 27 28 87 3d
       -0.09776453 -0.0029354 -0.16052002 0.06599455
0002c0 c3 16 71 be b3 4a 37 bd 79 22 17 3e 7d ce 36 3d
       -0.23543839 -0.044748973 0.14759244 0.044630516
0002d0 93 95 fd bb c0 4b aa bd c1 de 3b bb c5 ec f7 3d
       -0.007738778 -0.083152294 -0.0028666707 0.12105707
0002e0 78 ee 84 3d d3 6e 52 be 6a 68 84 3c 27 a1 f8 bd
       0.06490797 -0.20550089 0.01616307 -0.12140112
0002f0 6b ec 36 bc ba 56 06 be cc 6d 76 3d 74 7b d1 3d
       -0.011164765 -0.13119021 0.060163304 0.10228625
000300 b2 25 44 bc f3 36 5e 3d d4 61 53 be 9c 40 d4 3b
       -0.011971878 0.054251622 -0.20642787 0.0064774286
000310 f4 1e b9 bd e7 d8 41 be b2 66 16 3d b6 d9 0e 3e
       -0.09039107 -0.18930398 0.03671903 0.13950238
000320 55 1e b9 bd 4a b1 6c be 00 d2 cf 3d d9 83 21 3e
       -0.090389885 -0.23114505 0.10147476 0.15772952
000330 27 00 5f bd 22 b8 70 3d 10 08 4a 3e da b8 35 3e
       -0.054443505 0.058769353 0.19729638 0.17746297
000340 17 61 f9 bd 0c 35 c2 3d 17 29 58 be a9 26 e3 3d
       -0.121767215 0.09482774 -0.21109425 0.11091358
000350 82 03 0a 3e a9 c3 ff bc 7a 6a 20 3e 38 73 ad 3d
       0.134779 -0.031221228 0.15665618 0.08469242
000360 e9 6e 9a 3d 5d a1 8d bb 4f 9f 1d be ce ac a0 3d
       0.07540686 -0.0043222145 -0.15392803 0.0784546
000370 dd 7b 99 bd c3 8f 5a 3e 2a 3a 39 3e 35 ce 27 be
       -0.07494328 0.21343903 0.18088594 -0.16387255
000380 d6 17 8b be 67 19 a0 be f5 e9 a3 3d f4 27 c9 bc
       -0.27166623 -0.3126938 0.08003608 -0.024555184
000390 98 79 18 3e e3 43 65 bd 9b 87 ba 3d 0b fb c1 3d
       0.14890134 -0.055972945 0.09107896 0.09471711
0003a0 59 6a dc bc 5d 7c 83 3d bf f1 05 3d cc 2e 6c 3e
       -0.02690618 0.06420205 0.03270125 0.23064727
0003b0 e5 a2 0d 3e da 09 7f 3d 61 2f d2 bd d4 22 e9 3d
       0.1383167 0.062265255 -0.10262943 0.11383596
0003c0 c7 37 6f bd 45 19 be 3d 92 51 82 3c 75 98 de 3d
       -0.058402803 0.092821635 0.015908036 0.108689226
0003d0 6d 8d 56 3e f9 78 fe bb 1a 6d 70 bd 1b 14 85 3d
       0.20952387 -0.007765886 -0.058697797 0.064979754
0003e0 1e 57 8d bd cc 9f ec bd c4 51 4d 3e f2 bd 34 3e
       -0.06901382 -0.11553916 0.20050722 0.17650583
0003f0 62 10 50 be 8c 08 f5 bd 37 c9 f9 bc b3 56 88 bd
       -0.2031875 -0.11964521 -0.030491455 -0.066571616

net.8.bias f4 [70]
000000 05 de 0f bc 53 2c cc 3b 9b a1 e7 3b ef 04 19 bc
       -0.008780961 0.00623087 0.0070688254 -0.009339555
000010 6b 6b 1b bc b4 75 66 3b 52 06 ef bb 37 1c e4 3b
       -0.00948606 0.0035165371 -0.0072944546 0.0069613713
000020 8c cd 77 3b e8 e2 bb 3b 39 8f 0a bc 7f 75 3e bb
       0.0037811724 0.0057338364 -0.0084569985 -0.0029061732
000030 53 fa dd 3b a5 6d 56 bc 5d d6 55 3c 9f 11 2c bb
       0.0067742257 -0.013087665 0.0130515965 -0.002625562
000040 d0 00 9c 3b cd 2f ca bb 2b 45 02 bd 10 a9 01 3c
       0.004760839 -0.006170249 -0.031804245 0.007913843
000050 3a 58 83 3d 49 bc 4e 3d 3f 81 bb 3b ae 02 37 3d
       0.06413312 0.05047253 0.0057221944 0.04468029
000060 9f ae da bb 7a 74 6a 3b 38 af e9 3c df 67 26 bc
       -0.0066736485 0.0035774992 0.028525934 -0.010156601
000070 5d f7 fc bb 95 d0 b4 3a 19 2c 5e 3c 32 c0 d9 3b
       -0.0077199177 0.0013795072 0.013560318 0.006645226
000080 1d 3c ff bb b9 b0 06 bd c3 fc 3c bc 26 a4 76 ba
       -0.0077891485 -0.03288338 -0.011534872 -0.00094086153
000090 99 5f e2 bb 5f 08 93 3b 13 38 05 bc b6 2c d9 b9
       -0.006908369 0.004487082 -0.008131045 -0.00041422778
0000a0 79 34 00 bd 55 85 0c 3c 88 52 c8 3b 81 52 94 3b
       -0.03130004 0.008576711 0.006113354 0.004526437
0000b0 26 61 03 3c 19 d5 58 bc 18 47 1e bb 95 27 6e bc
       0.008018767 -0.0132344 -0.0024151262 -0.014535804
0000c0 dc cc 45 3b 4b 60 91 bb b7 3f a4 3b 6a 97 22 bc
       0.003018192 -0.004436528 0.005012478 -0.009923795
0000d0 29 64 16 3c 4d d1 f7 bb 3e e2 09 bc 28 43 e6 bb
       0.0091791535 -0.0075627924 -0.008415757 -0.0070270486
0000e0 a6 21 c8 3a ea 84 8d 3c 35 5b 15 bc f7 e9 83 3b
       0.0015268817 0.017275292 -0.009115984 0.0040256935
0000f0 13 a3 19 bc 0d e1 e1 3b 0e 32 53 3c 40 68 f9 bb
       -0.009377259 0.006893283 0.012890352 -0.0076113045
000100 f5 3c 47 bc ca f8 c2 bb a7 af a2 bc 5d 2c 5a bc
       -0.012160529 -0.005950068 -0.019859148 -0.013316241
000110 0f c1 1f 3c a1 ab e4 ba
       0.009750619 -0.0017446169

net.10.weight f4 [70, 70]
000000 9b ee 24 3e a2 d5 05 3e a7 3c ad 3d 58 96 1d be
       0.16106646 0.13069776 0.08458834 -0.15389383
000010 83 23 5e bd dd 6f 18 be d0 b5 af 3b 0d 4f c8 bd
       -0.054233085 -0.14886422 0.00536225 -0.09780703
000020 9e 39 26 3e 1e 97 04 3e ef cf 8a 3d 02 ec a0 3a
       0.16232917 0.12948272 0.067779414 0.0012277367
000030 17 13 b4 3d 02 53 d5 bd 5c c0 1f be b1 05 17 3d
       0.087927036 -0.10416223 -0.15600723 0.036870662
000040 ad 7f 82 be bc b0 18 be 61 a7 31 3e c3 74 08 3e
       -0.25488034 -0.14911169 0.17349006 0.13325791
000050 97 fc cc 3d a7 3c 19 3e ba 23 57 be 72 40 94 bd
       0.10009115 0.14964543 -0.21009722 -0.072388545
000060 2f 56 1c 3e f2 16 53 bc 74 0f 41 3d 3f 46 0a 3e
       0.15267251 -0.012883889 0.047133878 0.1350336
000070 11 2e 56 3d 6c 19 7a bd 12 ad 34 3d 3d f7 8a bd
       0.052290026 -0.0610594 0.044110365 -0.06785438
000080 99 67 8d bd b9 95 ae 3d 0b 62 c5 bd 77 4c 55 bd
       -0.06904525 0.08524651 -0.09637841 -0.052074876
000090 9b 19 37 be 14 f2 d0 3d 8c ef 0d 3e 93 5d 6e bd
       -0.17880861 0.10202423 0.13860911 -0.058194708
0000a0 ce 20 02 be 2f 94 12 be 39 ab 44 3d b8 b0 26 be
       -0.12707826 -0.1431434 0.048014853 -0.1627835
0000b0 c7 72 01 be 36 8b 3f 3d fa df 86 3d f3 2c 2e bd
       -0.1264144 0.04676362 0.06585689 -0.042523336
0000c0 5f f9 81 3d 93 2a 13 3e f7 18 3f 3e 9d ab f9 3d
       0.06346392 0.1437171 0.18661867 0.12190936
0000d0 ac cc 23 3d d7 44 1e be 07 71 4e bd e6 62 81 bd
       0.039990112 -0.15455948 -0.05040076 -0.063176915
0000e0 20 07 12 be 6c b5 33 bc 77 bd 86 3d 84 0c d9 b9
       -0.1426053 -0.010968547 0.06579106 -0.0004139879
0000f0 12 3c 26 3e 06 51 fd bd f9 dc 5b 3e 18 17 21 bc
       0.16233853 -0.123689696 0.21471013 -0.009832166
000100 03 96 5b 3e f2 d9 59 3d 2c 64 f3 bd b0 05 94 bd
       0.21443944 0.053186364 -0.11884341 -0.07227647
000110 fa 2b d9 3d 4b fa b7 3d 36 2e 19 be 0b 21 67 3d
       0.10604091 0.089832865 -0.14959034 0.056427997
000120 bb 0a a0 3d 0d 73 86 bc 71 a4 03 bc 1f a7 5b 3e
       0.07814547 -0.016412282 -0.008034811 0.2145047
000130 57 da 24 3d 50 2d 90 3d 0b df 70 bd db 35 85 3d
       0.040247288 0.07039893 -0.05880646 0.06504413
000140 b2 76 cc bd 06 90 38 bd 2f a5 18 be c5 72 63 3d
       -0.09983577 -0.045059226 -0.14906763 0.055529375
000150 8d 56 f2 bd 44 b9 22 be 03 66 2a 3c 9f ad e9 3d
       -0.118329145 -0.15890986 0.010400298 0.11410069
000160 7d 7c 69 3d 7b 7b 18 bc c3 c3 b0 bd 95 3b 27 3e
       0.057003487 -0.009306784 -0.086310886 0.16331322
000170 61 4a a1 bd b4 5a 89 bb 9d cb 05 3e e2 c1 4b 3d
       -0.07875515 -0.004191721 0.13065954 0.049745448
000180 0c d8 72 3e 71 45 ba bd 89 f2 93 bd d0 13 66 be
       0.23715228 -0.09095276 -0.07223994 -0.22468495
000190 a4 b0 93 3e c5 ca c9 bd 22 55 dc bc 89 9f 19 be
       0.28845704 -0.09853128 -0.026896063 -0.15002264
0001a0 f9 b5 4e 3e 21 b8 c8 3e 10 1a 14 bd 3d 7a e7 bd
       0.20186605 0.3920298 -0.036157668 -0.11302612
0001b0 cf d1 8e 3a 0d 05 52 3d 0e 42 96 bc af 77 98 3d
       0.0010896268 0.051274348 -0.018342044 0.07444703
0001c0 0e 4a 2b 3e fb f5 20 be 56 e9 ee 3c db 73 1f be
       0.16727468 -0.15718834 0.029163998 -0.15571539
0001d0 20 2b 3e be 58 d3 36 be a6 df a2 bd b4 96 b8 bc
       -0.18571138 -0.17854059 -0.07952814 -0.022532798
0001e0 ef 83 bf bd 94 c4 91 3d ce 75 9d bd bb 4d 03 be
       -0.09351336 0.071175724 -0.07688485 -0.1282262
0001f0 54 15 dd bd 3a 85 4f 3c a0 cf 05 3c b9 94 27 be
       -0.10795084 0.012666041 0.008167177 -0.16365327
000200 1f 0e 44 bc 7d e2 5e be cd f1 47 be 9b 46 a3 bd
       -0.011966257 -0.21766086 -0.19525833 -0.07972451
000210 4d 77 34 3e ab 48 e9 3d d6 28 4d 3b 83 8c fd bc
       0.17623635 0.113908134 0.0031304858 -0.03095079
000220 42 1b 0e bd cc ba 70 3d fb 9c 15 3e c3 54 ac 3d
       -0.034693964 0.058771893 0.14610665 0.084146045
000230 b4 9c bc bd b2 48 df bd 99 69 63 bd ed 9e f7 bd
       -0.09209576 -0.109025374 -0.055520628 -0.120908596
000240 4a 88 37 3e b5 e5 02 be 20 08 50 3d 2e c5 2e bd
       0.17923084 -0.12782939 0.050789 -0.042668514
000250 d7 87 d9 3d 70 db 8d bc 15 11 8a 3d 84 45 0a 3e
       0.106216125 -0.01731655 0.067415394 0.1350308
000260 92 11 7f bb ff 99 da bc 5a f7 0c bd 47 e7 7f be
       -0.0038920385 -0.02668476 -0.03441558 -0.24990569
000270 40 73 69 3d d1 88 73 3c cd 45 da 3d 41 a2 b9 bd
       0.056994677 0.014864163 0.10657845 -0.090641506
000280 3b 76 12 3e c7 70 35 bc d8 48 12 3d 2d 2e 08 be
       0.14302914 -0.0110742515 0.035714 -0.13298865
000290 cd 5e ae 3c 71 72 88 bd 19 9b ad 3d 34 19 bf 3d
       0.021285439 -0.06662453 0.08476848 0.09330979
0002a0 bc 57 96 3d f9 8e a1 bd ec a5 dc bd 97 89 4b 3d
       0.07340953 -0.07888598 -0.107738346 0.049691763
0002b0 fc a9 c6 3d 89 e2 04 bd 9c ac 34 3d 48 f5 55 3e
       0.09700391 -0.032442603 0.044109926 0.20894349
0002c0 e5 8d 72 3d ba ab f2 3d 7f c3 2d bd 27 ea 25 be
       0.059217352 0.118491605 -0.042422768 -0.16202603
0002d0 9a 63 3f be 82 e2 13 bd bb de b1 bd 99 04 63 be
       -0.18690339 -0.036104687 -0.086850606 -0.22169723
0002e0 bf a3 37 3e 18 dc 48 be c9 b8 01 3d 3f 0e 38 3c
       0.17933558 -0.19615209 0.031670365 0.011233865
0002f0 13 13 1f 3d f3 68 19 3c e9 e0 d9 3c 19 9c aa 3d
       0.03883655 0.009363401 0.026596503 0.083305545
000300 08 5f 0c bd fa 72 00 bd 03 4f 4f 3c 37 84 c1 3c
       -0.034270316 -0.03135965 0.012653115 0.023622615
000310 1e cf 38 3d 59 4e 28 3d 8e d1 3a be a1 ff b8 3d
       0.045119397 0.041090343 -0.18244001 0.09033132
000320 93 66 25 3e d0 78 f9 3c 8b f7 9a ba 92 73 9a 3d
       0.1615241 0.030453116 -0.0011823041 0.075415745
000330 62 ce 88 3d 63 ab 02 bd ce e9 7f 3d 0e 0d 92 bb
       0.066799894 -0.03190173 0.062478833 -0.0044571226
000340 93 d3 c9 3d 84 f0 37 3e 1a 38 d5 bc 4c 65 21 be
       0.09854808 0.17962843 -0.026027728 -0.15761298
000350 cc 7d ff bc 30 3f d8 3c 15 99 02 3d 1d 4e 36 3d
       -0.031187914 0.026397318 0.03188427 0.04450809
000360 df 0c d1 3d 12 9b c2 3d 19 dc 0d be b1 0b 81 3d
       0.10207533 0.095022336 -0.13853492 0.06301058
000370 18 b4 31 bd 09 58 ae 3e 6c 77 3e bd d3 ae 48 3e
       -0.04338464 0.3405154 -0.04650061 0.1959794
000380 32 89 ff bd 00 db fb bd 1d 7e 51 3e 9b 17 06 3d
       -0.1247734 -0.1229763 0.20458265 0.032737356
000390 6e 08 df 3c 8f 35 60 3d 49 64 5f bd 76 34 c9 3d
       0.0272257 0.054738577 -0.054539 0.09824459
0003a0 96 c5 8b 3d ab 98 0a be 76 9f 39 3d b6 89 bc 3d
       0.06824796 -0.135348 0.04531809 0.09205954
0003b0 66 7b 2d 3e be 87 83 3d e7 e6 6e bd f8 48 5a bd
       0.16941604 0.06422375 -0.058325674 -0.053292245
0003c0 07 31 ff 3d 9b 66 0e be 3e ed 7c 3d 73 23 24 3d
       0.12460523 -0.13906328 0.06174969 0.04007287
0003d0 5f 73 fd 3d 1c ba 76 bd 4c 4d ab bd 80 eb 10 3d
       0.12375521 -0.06023608 -0.083643526 0.03538084
0003e0 9b 89 6e 3d 78 19 95 3e 63 65 45 be 81 4a 80 3e
       0.0582367 0.29120994 -0.19276957 0.25056842
0003f0 82 57 9e 3d 25 84 3d 3d a7 10 90 ba 52 ca 4e bc
       0.077315345 0.0462686 -0.0010991291 -0.012621479
